code/models/model2.pt (torch, 896455 bytes, 50 tensors)

att_src f8 [1, 3, 15]
000000 37 b8 cd b5 04 f4 bc bf de 3c 13 74 f8 75 cb 3f
       -0.11309842527927648 0.2145376745961362
000010 e0 24 bd b9 31 fb d9 bf 57 3d db 4b ea 2c e4 3f
       -0.4059566797119043 0.6304828149385838
000020 7e 41 5f 2f 6e 1e cd 3f fe 2d ab f7 6b 9e ca 3f
       0.22749116242495043 0.20795964806744388
000030 9a 5e 9f 39 1a 11 d5 3f d9 bf a6 c0 b7 df c8 3f
       0.3291688502044764 0.19432732493214536
000040 31 5f 01 cc 9a c9 e0 3f 82 f3 ea 95 1f c6 cb 3f
       0.5246099457244552 0.21698374576763163
000050 83 84 a5 1d 80 e6 e1 3f 86 07 d2 bb 9c 62 dc bf
       0.5593872622522585 -0.44351881353224376
000060 36 28 55 71 c8 30 c6 bf 95 da 91 9f d7 ea db bf
       -0.17336373838253544 -0.43620863516790936
000070 5a b4 c2 c8 0a 90 cd 3f 1c aa df aa 5e 1d ca 3f
       0.2309583168293184 0.20402129500810495
000080 53 28 cf 10 ab 09 e2 bf da 88 b7 4e a1 67 d0 bf
       -0.5636802032761444 -0.25632507979584107
000090 a2 cd ce b4 b4 78 e1 bf 8c b4 7e b9 79 25 dc bf
       -0.5459846049692951 -0.43978732218494865
0000a0 22 86 aa 94 58 40 c5 3f a1 ab 51 db 52 b3 a8 3f
       0.16602618464553226 0.04824313094362443
0000b0 a1 3a 29 17 df 02 d8 bf 36 4f 72 65 cb b5 c4 3f
       -0.37517525922604916 0.16179792836612145
0000c0 32 d0 d5 a8 89 08 da bf c5 2a ca 7c d4 db d5 3f
       -0.40677110183537757 0.3415423601769983
0000d0 06 69 33 2e e6 f1 e2 bf 18 ee 72 f1 7e fd d1 bf
       -0.5920287039146224 -0.2810971601390704
0000e0 29 80 cf d7 f2 e9 c6 3f b7 bb f5 47 e2 9b d1 bf
       0.1790145448458145 -0.27513939883550215
0000f0 d4 0a 07 be fe c1 d4 bf 92 6a be ed f5 43 ef 3f
       -0.3243405204522507 0.977045978873621
000100 40 c1 2b 83 88 55 cd bf 4e 9f 72 ce 6d 1d f2 bf
       -0.2291727676852222 -1.1321847977032635
000110 1d 67 d5 5a 45 64 a5 bf 68 af 59 83 e9 f0 d3 bf
       -0.04178063138779307 -0.3115791113584607
000120 b8 75 1e d2 36 be e9 bf 32 11 bd 7c ff 0d d3 bf
       -0.8044694999586488 -0.2977293699407425
000130 e7 6e 81 65 cc 26 cd bf 8d 12 92 42 87 c6 ca bf
       -0.22774653393104602 -0.20918360472218858
000140 ac 26 e7 f9 ea e8 e0 bf 49 a4 84 da 86 1d e1 bf
       -0.528432357875507 -0.5348543422634374
000150 3f 13 4f d1 0e 86 d9 3f 08 c6 78 12 b1 d3 d4 bf
       0.39880724373169935 -0.32542063526042897
000160 8b 4c e8 ab bd 0e de 3f
       0.4696497134002093

att_dst f8 [1, 3, 15]
000000 3c 1e 07 7a e7 45 c4 bf 5f c7 05 5f 81 71 dc bf
       -0.15838330706013604 -0.4444278171496218
000010 3e 14 87 bf 62 d5 c9 bf b7 ba 1c 88 be c0 ce bf
       -0.20182451583801425 -0.24025708814720811
000020 ba 7d 44 a1 d3 92 d5 bf c4 92 da 69 68 8d bb 3f
       -0.3370865893247942 0.10762646278687799
000030 6b d6 84 2e f8 fb cc bf b0 5b 10 e8 28 9f cf bf
       -0.22643949767523294 -0.247044671356631
000040 c9 14 c9 eb 8a 7b df bf 26 67 bf 84 0f b9 d6 3f
       -0.49191544557500017 0.35504520381583615
000050 ab d6 97 2a bb 6b b8 bf 16 b5 04 84 e6 58 d3 bf
       -0.09539384641524389 -0.3023010529748985
000060 99 cd 4d 76 89 7c d7 bf d8 18 e7 44 a4 30 d6 3f
       -0.3669761328994468 0.3467188523176339
000070 fc 5c ea 0b 14 87 e1 3f 2c 0c ad 94 bd e2 d4 3f
       0.5477390511249776 0.32633914488923454
000080 7e 6b fb 3a e1 17 dd 3f de 43 77 b6 fa b7 d5 bf
       0.4545825077054174 -0.3393542081731179
000090 d4 15 ae 98 44 34 a6 3f ab e6 6c 24 33 64 d8 3f
       0.043367522847841095 0.38111570889632657
0000a0 36 af f6 f2 8a 98 ba 3f 6d c3 c5 b0 f2 39 e0 bf
       0.10389011794785294 -0.5070737316692494
0000b0 12 20 cf a5 85 43 d5 3f 1f b5 e2 e5 45 2f bf bf
       0.3322462195615127 -0.12181507933083367
0000c0 34 dc 28 69 c7 8b e3 bf 9d c7 47 a1 48 f9 c8 3f
       -0.61081285990702 0.1951075351240065
0000d0 92 23 ab e7 e4 a2 d7 bf 1d fd 9b 6b be 47 d3 3f
       -0.36931727050664975 0.30125389584277845
0000e0 15 a5 b0 85 db 1d d9 3f 16 32 ce 0f b7 06 d5 3f
       0.3924473577086059 0.3285348562574496
0000f0 b6 bd ad 5f f6 e2 b7 3f 02 f0 82 0c 10 11 bd 3f
       0.09330692134766747 0.11354160600143362
000100 84 5a 6b 75 c8 09 a9 3f 48 9e 3f 2b 20 20 e8 3f
       0.0489027636846702 0.7539215893456879
000110 3a fb a3 a8 a2 17 d5 bf e1 5e 89 62 5b 4e d3 3f
       -0.3295675894623177 0.30165753004756196
000120 a1 d8 5e 76 f7 7a 89 3f c4 38 1b 2a 9e e5 c8 3f
       0.012441571521645324 0.19450738006566415
000130 eb 0a 7f 28 6a 4c dd 3f 78 cd 91 3e 47 cf c5 bf
       0.4577889819594662 -0.17038813166764633
000140 1d d0 1e 3c b2 50 9a bf e6 f0 75 73 ce e7 cb 3f
       -0.02569845668740821 0.21801167142610395
000150 93 22 88 86 92 6a a3 bf 18 72 dc d0 2e 67 c3 3f
       -0.037922457620941284 0.15158639143273045
000160 77 f9 e5 a1 d7 e5 c1 bf
       -0.1398267307776668

bias f8 [45]
000000 1f bd d9 cb d8 39 1b be 8f aa 79 f6 1a bc 18 be
       -1.584759697951181e-09 -1.4397540606782929e-09
000010 e3 63 c4 2c f8 d4 02 be 87 7c dd 94 9f 38 12 3e
       -5.480807696008567e-10 1.0606125591158165e-09
000020 db d9 13 41 64 c7 00 be 45 c1 ec 8d 48 a6 f8 3d
       -4.883294898268674e-10 3.5869808332341524e-10
000030 fd a0 90 7d a4 b1 f7 3d 3b fb 9c 15 c2 92 e9 bd
       3.447918596162472e-10 -1.860700576313374e-10
000040 2d 63 ca 14 21 f2 15 3e 4e 7d 8e f3 0e dc 20 3e
       1.2774146906597277e-09 1.9627161254351343e-09
000050 8a 1d fd 60 a3 20 f8 3d 03 59 dd 2f 42 b9 05 3e
       3.511012322792682e-10 6.322418974896706e-10
000060 74 ef 34 ee e3 9a ef 3d 6b 40 e6 0e 9b 76 12 be
       2.2995693466035023e-10 -1.074705709492517e-09
000070 a2 e4 0f 87 2a 44 fa bd 60 18 b6 8e 28 3f 1f 3e
       -3.822245914411625e-10 1.8187980521365188e-09
000080 5b dc e2 b9 84 e4 0f 3e 71 f8 e3 aa 41 65 c5 3d
       9.281982853960849e-10 3.8918248277981887e-11
000090 f6 92 8e 89 44 f1 1c 3e 68 fe 63 2e cd 2e 00 3e
       1.6846724347379173e-09 4.709820006058169e-10
0000a0 29 e3 a7 a1 7a 6b 17 be 8b 9e da da e3 32 08 be
       -1.3632141029056367e-09 -7.042774607494655e-10
0000b0 2e 97 1e 90 0f f7 05 3e 2d af b4 4d 46 26 20 3e
       6.392679998542648e-10 1.8800504327356885e-09
0000c0 36 25 ec 2d 67 36 17 3e 9a c9 88 98 83 71 df bd
       1.3511460211863932e-09 -1.1439047463908179e-10
0000d0 dc ff 72 5a 2e 26 ee 3d 4a d9 1d ec 29 72 f9 3d
       2.1936389963586626e-10 3.702873390866071e-10
0000e0 be 31 21 fd 7f 32 23 3e e4 80 f5 2f f3 89 15 3e
       2.2348558360145797e-09 1.2537270664657248e-09
0000f0 2c 5d 19 18 ae 4b 23 3e bf 5b b7 3a ed 0a 09 be
       2.246306419339247e-09 -7.288379807947396e-10
000100 1b a8 b9 b2 14 d1 f8 bd d2 6d 42 8a 11 bb 1b 3e
       -3.611308359342304e-10 1.6141413006885993e-09
000110 59 42 8a 8b 05 eb 11 be fe 19 fd a4 af 2f 15 be
       -1.0429679742770914e-09 -1.2332034455715605e-09
000120 8a 4b db bc 22 59 0d 3e eb 16 a3 a1 31 f7 02 3e
       8.541446384496508e-10 5.519716379053457e-10
000130 b0 9a 4b 52 75 68 0c 3e e9 f3 41 da 44 94 1b be
       8.267827851087836e-10 -1.6053193019950202e-09
000140 a8 cb 44 43 61 9e 1e 3e 74 8a 30 0e 4b 45 f2 bd
       1.7822412548160629e-09 -2.6587333566489553e-10
000150 e6 c6 21 58 e7 72 16 be 75 53 21 9c dc 22 00 3e
       -1.306694614080857e-09 4.696246102591293e-10
000160 05 60 14 53 dc 14 0d be
       -8.463826637459921e-10

weight f8 [45, 6]
000000 61 f5 49 b7 16 34 8a 3f 59 f5 2c 4d 2e 06 c6 bf
       0.012794663876088465 -0.1720636250337673
000010 7e 45 40 2f e1 d7 b8 3f ae 4f 74 48 b8 4d be 3f
       0.09704406169500676 0.11837341088204198
000020 d0 30 2c 93 7a 53 d5 3f d6 e3 50 35 c1 98 c7 3f
       0.3332201421005836 0.18434920409506955
000030 1f f9 2f f9 75 4c d6 3f a6 f3 e9 a3 9e 09 58 bf
       0.3484167989226012 -0.0014671372624939032
000040 61 d3 e6 48 75 b1 ae bf 57 5c 36 cd 22 b3 c6 3f
       -0.05994764819062116 0.17734179515966517
000050 d4 da 70 06 18 90 ba 3f 5a 66 35 1d 0a ba d5 3f
       0.10376119763609931 0.33947995045091306
000060 17 5a eb 86 02 b8 c3 bf 37 45 e4 47 50 5c c5 bf
       -0.15405303562029424 -0.16687968740783685
000070 ee 53 5a e5 5d e0 b7 3f 5a 17 22 1e 13 2a d0 bf
       0.09326731538233421 -0.2525680345792033
000080 f8 88 c0 f4 a9 85 b8 bf 11 71 af 12 ee 44 c3 bf
       -0.09578954911606619 -0.1505410758244428
000090 7c 4e 46 62 2b 39 c0 bf 39 fb f9 d9 cc b6 81 3f
       -0.12674467371526876 0.008649444963564444
0000a0 ed 27 4b c4 73 ee b5 3f 98 4f 55 93 68 2c cd bf
       0.08566974203418427 -0.22791773981100216
0000b0 04 88 b5 fb 04 4e c5 3f 0a 8e 1b 94 c7 11 d4 bf
       0.16644346514209485 -0.3135851808894762
0000c0 f6 fa d1 0f b9 b4 b1 bf a7 46 ce 86 e3 f1 d5 bf
       -0.06916386257396909 -0.3428887192213587
0000d0 7a 43 7e 95 2f 07 92 bf eb 29 4a d6 1d 3c c7 3f
       -0.017605536937085976 0.18152211154331552
0000e0 63 d7 68 45 e2 5d b8 bf 33 99 da 26 01 72 bc bf
       -0.0951825541931988 -0.11111457060414835
0000f0 45 42 db 69 21 e4 d8 bf 22 36 7c 61 c2 37 ce bf
       -0.3889239820246398 -0.23607663879413204
000100 f9 f8 d7 cb 8d 0e aa bf 32 d4 42 45 8d 93 c6 3f
       -0.05089228738141744 0.17637792474639152
000110 ac c7 4e c6 00 32 b7 bf 01 a6 dd 98 8c 9d d7 bf
       -0.09060673562524241 -0.36899104049970793
000120 6c 46 a3 7c 06 6d d2 bf 7b a2 b9 8b ae e1 c9 bf
       -0.28790437862071516 -0.2021997625590933
000130 29 77 a8 d9 67 b4 c6 3f 9e c2 6e 0d 23 cf d3 3f
       0.17738054397425998 0.30951763450415537
000140 52 70 69 64 de 9e b9 bf ab 95 6d 2d 66 bf da bf
       -0.10008039428197549 -0.4179320758470008
000150 89 be 00 07 60 eb c0 3f 41 e9 9b 17 2f 51 b9 bf
       0.13218307821215472 -0.09889501882927211
000160 e5 7b 7b 5d da d9 b1 bf db 20 0b 30 19 84 d2 3f
       -0.0697304228046814 0.2893126458334458
000170 ff ee 37 d9 47 5b c0 3f 85 0a 85 4f 9b 71 cb bf
       0.12778566461917504 -0.2144045007972474
000180 ad 05 97 cb 28 e8 d1 bf 26 b2 9a d2 23 63 b4 bf
       -0.27979488260106217 -0.0796377553148849
000190 e2 15 1e e3 9e 36 c8 3f 1c 8c 44 8e fa 48 c5 bf
       0.1891668900463364 -0.1662896341959773
0001a0 2f 92 e2 22 12 29 be bf 80 49 84 a7 6e a0 d4 bf
       -0.11781419135747549 -0.32229200705582883
0001b0 dd b4 ec a0 69 10 b5 bf 7b 50 25 8d 80 dd c7 bf
       -0.0822816865808877 -0.18644720928080347
0001c0 b5 0a 1f 30 da 54 af 3f 40 30 68 86 37 0e a4 bf
       0.06119424664895715 -0.03917096629820138
0001d0 81 01 6b 94 45 09 c0 3f 02 5f 5c 8c d2 98 9d bf
       0.12528295275661708 -0.028903283898300998
0001e0 cd 9f 09 df eb f7 d2 bf dc d6 7f fb 40 e4 c0 bf
       -0.2963819196797857 -0.1319657543205527
0001f0 15 05 2e 5a b5 f0 9c bf fd df 59 6c 9b d4 c5 bf
       -0.02826197970307927 -0.170550754457281
000200 b7 95 d9 32 85 6c c3 3f 50 49 d8 43 32 83 d2 bf
       0.1517492769518591 -0.28925758958316283
000210 e1 e1 19 98 1d 13 ac bf 78 6a dc e8 72 93 c4 bf
       -0.054833340470341836 -0.16074978227773662
000220 9b 4d a0 e2 9f 34 a6 3f 40 cf 06 67 35 33 b8 bf
       0.04337024346764481 -0.09453138127611016
000230 74 3e a0 76 21 75 d1 3f 94 8c 8c 85 3f 97 c6 bf
       0.2727740915733883 -0.1764907266707253
000240 f8 18 af e5 a4 95 b0 3f 64 13 d5 b1 24 40 d2 bf
       0.06478338820952334 -0.2851649986881084
000250 5e ec 7b ab 13 d7 9c 3f 77 24 c5 02 91 06 d2 bf
       0.028164203015858973 -0.2816507842113149
000260 de 90 19 3b 23 c2 d2 3f 96 84 32 4f be 53 dd bf
       0.2930992200038086 -0.4582362912570458
000270 74 d3 e7 df c8 9b cb 3f 7d f7 51 42 b5 08 d4 bf
       0.21569167073144124 -0.3130314967783006
000280 b7 b1 88 51 76 45 ce bf ea 4e 89 a7 ad 5f 8a bf
       -0.23649481755400156 -0.012877804446510283
000290 73 91 aa fa fd 00 b1 bf 77 13 13 f3 cb ef cc 3f
       -0.06642138833791993 0.22606801384804573
0002a0 d1 e8 a7 29 79 0f c6 3f da 05 fa a9 38 49 c6 3f
       0.17234720739344891 0.17410953807488633
0002b0 b7 f9 1f 34 23 02 d8 bf b9 64 ea 33 19 31 cb bf
       -0.37513046350786844 -0.21243586573544862
0002c0 5e 38 96 d7 b3 b8 d5 3f dd 81 70 0c ab 0d 9c bf
       0.33939834645651057 -0.027395889887090397
0002d0 22 f0 64 e9 10 93 c8 bf f7 3e 96 31 70 f4 c4 3f
       -0.19198810001569294 0.16370966359362857
0002e0 a5 bb 9e b9 d3 b8 c9 bf 46 01 e2 16 f8 66 a1 bf
       -0.200952973971167 -0.03398871688205189
0002f0 c3 89 aa db e9 cc d0 bf 54 69 6b 4e 3c 44 bb bf
       -0.2625069279839886 -0.10650994219341686
000300 90 e9 5a ad e2 23 b4 bf 1f f4 0f ce 8c 3b d0 bf
       -0.0786725686292924 -0.25363464473031344
000310 94 a7 12 72 ac f8 c4 bf a9 eb f5 98 f8 6e c5 bf
       -0.163838916492122 -0.16744906872540113
000320 37 2f 4d a2 cb 7d ba bf 8b 11 bf 67 02 90 c3 bf
       -0.10348198616446501 -0.15283231797924332
000330 2d a0 1a 07 fc 43 d3 3f ca e6 cd 44 a7 97 b0 bf
       0.3010244435668053 -0.0648140471438651
000340 9a 66 b8 18 73 5b a3 3f ff ff cd c7 af 6b b9 bf
       0.03780708004724183 -0.09929941776317718
000350 e2 70 d4 6e bf f9 d0 3f 64 0c c7 a0 95 93 b8 3f
       0.2652433950731973 0.09600196051819548
000360 9d 0f 0f f4 6b 96 9a bf 3b ed 85 d0 e9 43 8e bf
       -0.025964438220185227 -0.014777971912499957
000370 8b 48 7e 3e 51 66 a0 3f dc 8c 16 d2 ef 69 d6 bf
       0.032030619505477885 -0.3502158691064332
000380 61 eb d8 1d ee c0 c4 bf de 1a 7e 86 5a 0e 84 3f
       -0.1621377607096646 0.009793002347362852
000390 ba 45 1a f6 69 54 ac bf 6f 14 6c 59 09 43 d2 3f
       -0.05533152703459217 0.28534158451686314
0003a0 ba df 5a ba 70 66 87 bf 86 73 67 b8 ff 4f da bf
       -0.011425858199217365 -0.41113274582112813
0003b0 d4 00 a9 9a eb 59 c2 3f 6c b7 f1 3b 7d 98 ce bf
       0.14336915065542277 -0.23902860094988954
0003c0 5d 41 9d d3 08 b9 ae bf d7 97 8c ac 1d 13 ae 3f
       -0.0600054510420047 0.0587395928508127
0003d0 78 e1 2e 89 00 41 b7 bf 4a 24 2b 6a f0 22 c5 3f
       -0.09083560322949846 0.16512875732431304
0003e0 b2 c9 17 82 0a b6 b1 3f 02 6a 56 dc ae 25 d4 bf
       0.06918397594544137 -0.3147999908193527
0003f0 56 a8 03 15 f5 d3 da 3f ac d8 f7 a3 0e 54 81 bf
       0.4191868500917101 -0.008461107615385842
000400 5a 04 b4 85 b3 bd b9 bf 85 ff e6 73 61 e5 d4 3f
       -0.10055086149442741 0.3265002853258852
000410 7e d1 f2 4f e3 b0 d1 3f e1 00 36 c0 c1 b3 bf 3f
       0.2764213829753074 0.12383662169122857
000420 22 64 8b 65 96 5a d1 3f a4 57 df f7 a6 72 d3 3f
       0.2711540214200473 0.3038728161458215
000430 dc e2 55 90 7a 07 cf bf 03 e0 2c 40 92 48 c3 bf
       -0.2424157337916516 -0.15065220006522403
000440 1d 24 d6 06 07 c3 d3 3f 12 c9 c4 d7 6c 18 c7 3f
       0.3087785307657798 0.18043289695339887
000450 99 bd 30 67 32 8c bb bf 92 97 b2 a4 f0 41 c8 bf
       -0.1076079847268744 -0.1895123295009254
000460 7e 00 db 32 fd 84 ca 3f 48 45 7c 98 7c c9 c7 3f
       0.2071835039441829 0.18583638616159193
000470 a0 8a ac 0a 68 31 ce 3f 05 b7 b7 da ce 42 c0 bf
       0.23588276406470232 -0.1270388191182336
000480 32 dc b1 14 87 69 cd 3f 80 91 37 62 5e 4d c0 3f
       0.2297829485939658 0.1273611049247272
000490 fa f7 04 46 af d7 c8 3f ab 2a 8c 56 62 3b 94 bf
       0.19408217352787444 -0.019757782490197922
0004a0 2d 0a 15 c8 a5 89 c3 bf 10 35 a4 21 42 c6 ce bf
       -0.15263817090642942 -0.24042536394737413
0004b0 a5 46 39 c2 5e a8 d2 3f 5c f2 a9 c9 d4 01 98 bf
       0.29152649848138373 -0.023444485481819974
0004c0 b0 1b 88 15 ac 0d a6 3f 1e f2 f8 fc 9a e9 d1 3f
       0.043073060634973515 0.2798831434663799
0004d0 25 3b 32 0f 85 d7 87 bf db 4a 16 e6 80 a9 d4 bf
       -0.011641540075542143 -0.32284567326966646
0004e0 c2 4e bc 9e a2 9f c1 3f d9 ed 5b f3 bd 05 b1 bf
       0.13768418074379524 -0.06649386588463048
0004f0 95 21 05 d7 99 a7 c2 bf 44 e9 f8 fe 96 3d d8 3f
       -0.1457397746946866 0.37875914477958283
000500 97 67 86 4a 6d 95 cd 3f c9 0d a3 19 24 ea d1 bf
       0.23112264765660193 -0.27991583350759847
000510 74 f9 fd b2 20 ee d3 3f 34 33 36 64 7b c2 ca bf
       0.3114091632814031 -0.20906011956358272
000520 ab e6 b9 3e b7 f3 ba 3f 1d 75 96 18 06 7b b1 bf
       0.10528130799675732 -0.06828344440733188
000530 19 80 a1 db 59 96 8f bf 3a 2a dd 44 e0 76 bd 3f
       -0.015423490538694339 0.1150951545834368
000540 16 df fd 61 19 f7 c6 3f 41 a7 64 06 83 c7 cf 3f
       0.17941586766004808 0.24827611744086123
000550 af 36 86 c1 93 fb ae bf ac de d7 8f 4a 0b cc 3f
       -0.060513131497925136 0.21909458182903074
000560 6e aa 5a be 34 e5 b6 3f 20 1a 30 bf 63 83 a0 bf
       0.08943490645712313 -0.03225242337071088
000570 8b a2 25 a5 ad 5a b2 3f 2c 57 b9 55 6e 7e cc 3f
       0.07169614107045612 0.22260836778394244
000580 9d 17 b6 9e 30 af ca 3f 44 7f d0 9b 61 08 cc 3f
       0.20847137212348069 0.21900577648284003
000590 5f b1 a0 82 b3 0e c2 bf 30 d6 85 c7 bd 8d b6 3f
       -0.14107364538484554 0.08810030099069688
0005a0 10 07 8d 4d d0 c3 b3 bf f9 85 43 56 41 a0 c3 3f
       -0.07720662968952419 0.15332810127351573
0005b0 de 2b 48 6e 0b 96 b3 3f f9 33 67 61 b0 94 bc 3f
       0.0765082496874778 0.1116438138771655
0005c0 53 3b b2 37 c1 da b8 bf dd 20 ba 04 e0 a3 c5 3f
       -0.09708793267985287 0.16906357031644506
0005d0 b8 40 ce 8e 89 b3 c3 3f 10 0e ee 2f 5d f6 91 bf
       0.15391654465611793 -0.017541366625222266
0005e0 1d a8 34 3e 33 9a d5 3f ea 1b 78 c6 e6 d1 ca bf
       0.33753663134359774 -0.20953068438413364
0005f0 08 3d ff d1 82 e5 ba 3f 4b 79 e2 07 1a c0 d2 bf
       0.1050645601928758 -0.29297495622622155
000600 11 b2 21 f2 d0 63 b9 bf 37 5c 15 b4 47 0d bc 3f
       -0.09917932425896249 0.10957763811653441
000610 d6 b6 d7 92 82 b0 ae 3f a0 c3 d0 a1 1f 71 c8 3f
       0.05994041483414285 0.19095225716730813
000620 ed a0 96 18 aa a4 b1 bf 8e 73 c9 85 b4 45 d1 3f
       -0.06891882992079319 0.2698794657242666
000630 13 00 da e6 bd 83 bf 3f 81 8f 48 5b 90 41 c0 bf
       0.1231039703943682 -0.12700085122298435
000640 0d 1a 42 ec 6a 7a b1 3f 07 fe 3c 95 74 2b b5 bf
       0.0682741953661223 -0.08269432681571952
000650 11 70 68 a5 9e 44 c2 3f 8d 6a 28 f1 e7 a6 d6 3f
       0.1427191074043326 0.3539371352250463
000660 e7 1e 5d 18 6d 90 c0 3f dc 07 ff 68 7d 7f 98 3f
       0.12940753640781752 0.02392383530946761
000670 0f e7 12 e0 25 e3 bd bf ac c2 8a 1a a0 e4 c7 3f
       -0.11674725266030016 0.18666459365842536
000680 bd 63 70 42 18 53 97 bf 09 c2 83 8a e3 48 bb bf
       -0.022777918868175585 -0.106580945317326
000690 39 77 f8 ad 8e 0b c5 3f b2 47 34 15 cc d0 90 3f
       0.16441520208985042 0.016421498102381533
0006a0 15 00 9d 12 69 cd c8 bf 18 60 4e 4e 99 8b b7 bf
       -0.19376862915851292 -0.09197385942241032
0006b0 3e c8 8e cf ae 0d d0 3f af 84 9d 2b 53 96 b9 3f
       0.2508351351672252 0.09995002569987109
0006c0 a5 30 93 30 37 32 cc bf bb 19 f1 5d f6 c1 b3 3f
       -0.22028245803665417 0.07717838090420674
0006d0 ea b4 e8 1a c5 9e d7 3f b7 17 e7 b9 2b 79 d5 bf
       0.369065548208552 -0.3355206790405378
0006e0 6c 09 b6 b0 6b 03 8b bf a2 52 25 51 10 fe d0 3f
       -0.013190118150991657 0.26550681995767367
0006f0 bd 04 c2 56 d7 ce b9 bf 8a 0d 87 3b db 92 c4 3f
       -0.10081239574539587 0.16073170096033734
000700 72 70 76 be 36 6c c1 bf 9b 00 af 42 16 63 c9 bf
       -0.13611492443022005 -0.19833639389071753
000710 5f e0 a6 65 72 93 d4 3f a6 b3 cb 75 be 91 cd 3f
       0.3214994423574406 0.2310102534460416
000720 fe 0d 3a a6 36 4d c7 3f e7 f4 01 13 9b 06 d0 bf
       0.18204386822263524 -0.2504031835195079
000730 86 44 31 fc 77 f1 c0 3f 45 30 fa 08 4b fe cd bf
       0.1323690396698433 -0.23432290972084693
000740 6b 51 f3 22 fe 1d d4 bf 91 25 08 ae f3 85 ba bf
       -0.3143306104004952 -0.10360644339393434
000750 a9 b2 95 bd bc b6 c2 bf 7a bf 3d 1b 0c 68 cb 3f
       -0.14620169884746773 0.21411277132164824
000760 7e ea a6 32 67 6f d3 bf bd 0f c8 9b 4b 33 d0 3f
       -0.303674506630763 0.2531308194450011
000770 88 02 a6 71 dc b9 c0 3f 3d f6 e8 5d a5 19 bd 3f
       0.13067203091852186 0.11367257635807788
000780 d9 42 59 6a 04 6f c0 3f 06 d5 ef e9 4b 84 a8 3f
       0.1283879775314947 0.047884342486137085
000790 39 f8 56 51 6f 17 95 3f 69 e9 78 88 f0 8a cd bf
       0.020597209300597028 -0.23080259956061447
0007a0 3d 71 8b 80 2e 81 cc bf 43 8f ba 5b ed cc 85 bf
       -0.22269231106373324 -0.010644773828353165
0007b0 9e 1b de 19 32 ca a9 3f 77 59 64 a6 77 bb a0 bf
       0.0503707558228179 -0.032680262624284966
0007c0 4f d1 cb 3f 83 a2 bc 3f 16 dc 1a c0 55 05 81 bf
       0.11185474689029216 -0.008310956883503844
0007d0 89 42 e2 93 a1 90 82 bf 14 4e 7a 0d da e5 bd 3f
       -0.009064924550586955 0.11678850964590765
0007e0 d9 c5 35 d0 6c 32 d4 bf cd be 45 f9 a8 78 c8 3f
       -0.31557770092976295 0.19118225261217106
0007f0 dc aa a4 64 fc b2 c7 3f 34 df 3a 5f c8 11 b3 bf
       0.18514971651287382 -0.0744900925154724

weight f8 [15, 45]
000000 dd 63 3d 04 ff e1 b8 3f 6e b4 a1 5d df ad b1 3f
       0.09719842771063676 0.06905933414391693
000010 b4 3b f7 12 1b ac 9b bf 90 60 6e a8 73 ca 89 3f
       -0.027023718864991955 0.012593177392588722
000020 8d d4 80 57 5a e6 b1 3f 43 56 3b 92 e2 f1 b0 3f
       0.06992115627584124 0.06619087286102236
000030 33 c0 7d 0c c4 49 c0 3f 9e 96 c0 50 bb 4b 90 bf
       0.12725115404055173 -0.015913893512467518
000040 73 3b d3 77 81 ea b7 bf 8d af 6a 70 ca 18 80 3f
       -0.09342202353876221 0.007859784656225855
000050 33 6f b6 32 f4 48 b4 3f d8 3b 69 91 2a 29 b8 3f
       0.07923818815328047 0.09437814760279595
000060 d2 e8 af 9c 7e 50 c1 3f 9c 0c dc a2 4f ef aa 3f
       0.13526899958362165 0.05260704863578633
000070 52 16 8b e0 9a b1 a2 bf 21 3b 76 6e f8 3c a0 bf
       -0.036511268529960575 -0.03171516750727777
000080 f8 40 21 3a 37 da bf 3f 78 58 97 86 c0 d8 af 3f
       0.12442345780550912 0.062200561933125564
000090 7a dc c6 ea 35 d8 a3 3f c4 2b e6 59 a1 62 c5 3f
       0.038758931073453476 0.16707245721440078
0000a0 3e b9 14 34 b2 0a c5 bf b0 4f 08 68 53 e8 b5 bf
       -0.164388919286873 -0.08557626046996236
0000b0 ab 33 8d 6e 4b 64 a2 bf b0 76 8a b4 ea c1 b6 bf
       -0.035921437497200635 -0.08889643581138773
0000c0 aa f7 76 44 e0 7d c3 bf 19 44 cd d0 84 69 c6 bf
       -0.15227893202785242 -0.17509517856027015
0000d0 da 86 aa 13 8b fd a6 3f 52 33 9e 89 fe 09 b1 bf
       0.04490313162865585 -0.06655875072301612
0000e0 25 0c 59 c2 ae e1 ae bf e2 25 32 09 6b 0c a0 3f
       -0.06031557199869323 0.03134474265341304
0000f0 5c 63 4b 90 2d b4 b8 3f d5 33 4f 3f 9b 34 99 3f
       0.09649929783644268 0.02461474012288874
000100 f5 2a 4f 29 67 8e b7 3f c4 eb b4 24 d1 ae aa bf
       0.09201664694334595 -0.05211499760704144
000110 0d 28 4f 52 58 22 c0 bf dc f2 ea 99 84 2e a6 3f
       -0.12604812640194077 0.0433236539733792
000120 4f ab 1f ec d5 9b c1 3f cc 37 07 97 1e a8 bc 3f
       0.137568226141719 0.11194029986583515
000130 6e bf fd 34 4e 06 a7 3f ec 3d 24 3a da c0 9c bf
       0.0449699821173216 -0.028079423712425042
000140 7d a0 d9 e5 c1 69 64 bf bd ee 14 bd ea 4b 80 bf
       -0.002491835314504752 -0.007957300086324332
000150 c4 93 2c d0 22 e8 8b 3f 66 47 0f df 21 cd bd bf
       0.013626358011217372 -0.1164113206462197
000160 8a 01 57 3c 42 3f c1 bf 82 3d 9a 14 e4 5b a5 3f
       -0.1347430033329256 0.04171669723029493
000170 09 c0 d1 67 0d 7d aa bf a0 10 38 06 9a bf 51 bf
       -0.05173532383275876 -0.0010832790511594928
000180 24 92 8f a7 0e 89 b6 3f d3 1e 94 f2 cc 5e c4 3f
       0.08802882757988378 0.15914308399827934
000190 a9 46 52 72 3e 6b 96 3f 69 c6 dc 47 4a 2d 80 bf
       0.021893478133796638 -0.007898884122911913
0001a0 90 09 fc 75 c4 b9 9b 3f 93 10 e7 10 83 da a5 bf
       0.027075833989337605 -0.04268273907976652
0001b0 86 42 9f e0 b0 3c a4 bf b7 0e f7 27 b5 45 c3 bf
       -0.03952553503007032 -0.15056480838221883
0001c0 ac 1b 30 58 0c b8 61 3f 60 f2 52 18 0a a2 c3 bf
       0.00216295634300275 -0.1533825510758957
0001d0 8b 04 14 73 41 c4 b9 bf 25 c9 79 ee f3 57 af bf
       -0.10065087375189045 -0.06121790205078729
0001e0 7f 0d 9e f8 30 07 c5 3f e1 94 ce e0 38 7e 8e 3f
       0.1642819608642689 0.014889187202991429
0001f0 a7 02 cb 1d 79 85 a7 bf ec 75 00 ef ae 56 bd 3f
       -0.04594019402202792 0.1146039327145087
000200 f6 52 67 5c 8a 79 03 3f 85 83 dc 41 82 dd b2 bf
       3.7145171109342486e-05 -0.07369245632118122
000210 f0 10 d1 be 0b c4 b5 bf a5 22 45 6d 11 c1 ce 3f
       -0.08502267273530939 0.2402669700188841
000220 fc dd 15 94 9a 66 c1 bf b7 5e 7a 24 d2 0d b6 3f
       -0.1359437201569874 0.08614838972641335
000230 df 28 a0 74 f0 65 c0 3f c6 32 f9 47 a7 00 70 bf
       0.12811093992815523 -0.00390687317083111
000240 db ba 0f a1 ac 62 b7 3f 9a a0 7e 1b 68 cf 3e bf
       0.09134940082706626 -0.00047012607273667353
000250 74 a8 a0 09 48 bd ad 3f 98 0e 76 88 25 0b c6 3f
       0.05808472745441487 0.1722151676477679
000260 2e f7 ff 58 56 5a 87 bf f9 63 35 1a 65 15 b1 bf
       -0.011402773467121454 -0.06673271074158994
000270 2c 5f cf 4a 52 18 c6 bf 0c 48 31 70 4d d6 b8 3f
       -0.17261723187288547 0.097019996538876
000280 cf d7 a0 ff 2f a9 cc bf 17 b5 9c 22 51 b8 c1 bf
       -0.22391319257593387 -0.13843740644498645
000290 2e 37 6b 29 1d cc c3 bf 00 93 7d 7a 41 03 c1 3f
       -0.1546665622940337 0.13291185837729103
0002a0 3e 84 18 a9 08 2d bf bf fd f6 b4 df 86 22 b2 bf
       -0.12178091171564717 -0.07083933793634496
0002b0 cd 48 0d a1 4d 3a a7 bf 2b 65 07 0a 5e 19 a7 3f
       -0.0453666934105442 0.045115412449101853
0002c0 3c a0 ee 7f 60 37 b2 bf 41 0b 25 27 dc 57 84 bf
       -0.07115748523085669 -0.00993320459804681
0002d0 d3 4e df cd 86 49 ab 3f 54 d9 7f be bb d8 b6 3f
       0.053295338278670855 0.08924458886017322
0002e0 9b 27 3e 2e 02 e4 b0 bf ba d7 35 3a cd 1e a8 3f
       -0.06597913388227854 0.04710999808860046
0002f0 da 73 34 80 58 e0 be bf ee 8f d8 95 12 57 c0 3f
       -0.12061074380876793 0.12765724484154312
000300 f0 a7 57 21 2a d1 ae 3f 82 10 7c 25 eb 87 a4 bf
       0.06018954903613849 -0.04009947617126476
000310 49 35 29 13 af f3 c1 3f 1e 42 17 3c c1 55 74 3f
       0.14024914203256802 0.004964594672359128
000320 a6 51 ec 19 52 0b b2 bf 89 9a 03 53 d3 20 c2 3f
       -0.070485240296256 0.14162675431653707
000330 60 eb cf 67 b4 c9 ae bf 50 ad fd 9b 38 5e 8c bf
       -0.060132634804139995 -0.01385158754393126
000340 cc cb 56 ae b9 ef be 3f 4d 4f 71 11 63 68 ad 3f
       0.12084541803669352 0.05743703449175417
000350 c3 f9 9a 81 11 37 b3 bf 8b 0b b7 66 65 a1 c4 3f
       -0.07505902685350123 0.161175418046778
000360 a7 37 3a 05 8b 83 be 3f 62 10 24 7b 27 31 cc 3f
       0.11919468762991291 0.22025006783235584
000370 3d a9 f8 65 86 c3 af bf c1 f8 00 4e 5a 72 92 3f
       -0.062038612315819176 0.018014346133207185
000380 ce 2f 04 a2 8a 76 b9 3f 36 75 51 47 ac 62 99 3f
       0.09946505027272609 0.02479046998302189
000390 e5 ad dd 3a 4c 70 bb bf 0b 55 f6 e9 57 4b 9d bf
       -0.10718227803379639 -0.02860772481434019
0003a0 fb d4 14 b5 93 5b a8 bf c6 6f 20 05 d3 c7 b1 3f
       -0.04757367692438127 0.06945532679713926
0003b0 7d f3 4c 51 a1 50 7d 3f c0 3a 78 c1 43 c3 ab bf
       0.007156973025129851 -0.05422412621202488
0003c0 e4 b4 09 93 7d 5d c1 bf 28 7f 36 4b 2c 3a a5 bf
       -0.1356656043966843 -0.04145944994092893
0003d0 2e 32 3c fd 74 47 ba bf 65 d5 a4 cd aa bb 84 bf
       -0.10265284712313225 -0.010123571778062066
0003e0 53 6f 5f 5e 25 54 c1 3f 89 12 95 ab ff fc b0 bf
       0.13538043125196939 -0.06636045397778835
0003f0 05 e7 bd 4b ea 98 b5 3f 89 87 72 e8 69 e9 b3 bf
       0.08436455105939096 -0.07778036046013716
000400 e2 0b cb c1 1f b0 c0 3f e3 68 82 d4 79 9d a4 3f
       0.1303748794799438 0.04026394576176686
000410 f2 ac fb d1 67 ec c2 bf 53 b0 de 9e e8 5b af bf
       -0.14783952477532797 -0.06124808253602567
000420 e4 09 21 8d b2 31 b1 3f 29 b2 34 a3 32 3b b4 bf
       0.06716457315000174 -0.07902828678624786
000430 1d 6b ab 6d 7e 24 a3 bf c2 77 be fd 13 ad b5 3f
       -0.037387801062968 0.08467221207544554
000440 f8 16 81 fc 95 8d b9 bf c1 12 f6 29 fc b0 be bf
       -0.09981667914061265 -0.11988807701534211
000450 e2 1c c0 21 d6 11 95 bf f6 34 bc 86 26 d9 a3 bf
       -0.020575853166545317 -0.03876610178677169
000460 a3 dc 97 53 68 56 9e 3f 1a 12 5d c0 72 5c ae bf
       0.029626493551373156 -0.059299074155692647
000470 3c ad c5 45 fa 47 b4 bf 60 91 29 8f 41 00 ae 3f
       -0.07922329142973167 0.0585957038172491
000480 fc f9 76 29 70 16 92 3f a0 de 20 8d b1 a4 c5 3f
       0.017663719683463683 0.1690885485747815
000490 82 42 68 2f bb df ad bf 6d 8d c8 34 7c 9f 97 3f
       -0.05834755853368724 0.023069325181621126
0004a0 fe 35 17 c4 bb 26 b0 bf de 51 64 8e 28 1f c5 3f
       -0.06309102570886435 0.16501337959984047
0004b0 cf 72 61 7c 40 8c 78 3f b3 23 94 9b de 3f ae 3f
       0.005993129632852769 0.059081036082779724
0004c0 fa f3 6a 8e ad dc c3 3f 50 58 06 3a cb 4e bf 3f
       0.15517205671304152 0.12229604879971245
0004d0 0e 89 6e fe 3f 02 b4 bf 4e ed bd 00 ea 15 bd bf
       -0.07815933191026067 -0.11361563222992752
0004e0 93 0f 96 8e 25 92 bc 3f 2e 4e 01 cb a2 d1 b7 3f
       0.11160502177341262 0.09304254013232402
0004f0 13 39 2e c3 d9 04 b8 3f 13 52 f6 b6 a6 b1 b5 3f
       0.0938240148081813 0.08474199263429964
000500 08 e2 46 34 64 66 c6 bf 27 94 b7 d4 d0 da bc 3f
       -0.17499973824102733 0.11271386330879861
000510 74 2e 94 ec 12 ad bf 3f 06 4b a0 a5 7b 05 c2 bf
       0.12373464847422061 -0.14079232775892353
000520 27 a9 6a a4 0a 4e bf bf 21 b2 6f 93 a2 95 b2 3f
       -0.1222845698745557 0.07259574985045748
000530 c4 4c 74 4a 6c 86 bd 3f bb 8c 58 26 c3 a2 bb 3f
       0.11533238237125248 0.10795230566195617
000540 c0 09 08 58 d2 13 c0 bf 69 f4 24 09 80 69 b2 bf
       -0.12560490892799514 -0.07192230437517967
000550 d4 d0 bd 49 49 28 ad 3f 84 c0 94 16 b6 3f 8d bf
       0.056947984935421 -0.014281675876731244
000560 54 1d c0 22 d5 35 c3 3f 74 06 39 05 f1 1b 99 3f
       0.15008033940123744 0.024520650810023928
000570 c3 6d 27 d7 c8 f3 b3 3f 6e 4f 98 4d 30 22 80 3f
       0.07793860676559121 0.007877709739694896
000580 ad 99 26 6d 22 b5 b4 3f a6 52 8f 7b e1 1a a5 bf
       0.08088889279188179 -0.04122070916461
000590 6c 9f aa 8d e1 7e a1 bf be 75 e9 dc a3 d5 c9 3f
       -0.03417115072562535 0.20183227812496612
0005a0 20 11 d3 41 f1 fb a9 bf e1 40 ef 72 8c 79 a7 bf
       -0.050750293050017214 -0.04584921744356208
0005b0 c1 90 81 74 dd c2 ad 3f 91 28 6b b3 05 8b b1 bf
       0.058127327415407055 -0.06852756147705664
0005c0 2e c5 d5 3e 27 16 bf 3f 07 81 15 09 5c 99 7c 3f
       0.12143178257044404 0.006982192529307213
0005d0 02 e5 97 c9 d2 98 ba 3f 3d eb e3 5f 91 88 c4 3f
       0.1038943998500095 0.16041772062438922
0005e0 a7 41 32 b7 12 d5 bb 3f 58 b5 05 d7 ac 15 b9 3f
       0.10871998760763422 0.09798698663299399
0005f0 33 aa 41 63 21 ad b6 3f 53 14 55 20 94 59 a8 bf
       0.08857926057104563 -0.047558430620974555
000600 6b bc a8 f4 83 37 be 3f 7a 43 88 96 e4 13 b3 3f
       0.11803459857104463 0.07452229189972384
000610 2d b7 9c 44 52 9c ba bf 13 2c 5c 1b b6 55 ab 3f
       -0.1039477746496373 0.05338830074295955
000620 75 16 94 4e 65 86 a6 3f be 03 5a e4 5d 3c b1 3f
       0.04399410804948626 0.06732737374296868
000630 34 ee a3 f0 5a 55 a4 bf f7 7b ae 85 64 23 b3 bf
       -0.03971370875839533 -0.07475879920683313
000640 19 f4 b9 34 21 e7 b3 bf 4d ed 4d dd 83 57 ae 3f
       -0.07774550950303229 0.05926143719167474
000650 24 8e aa 2d cd b2 c2 3f 09 74 b6 df 16 65 b9 3f
       0.146081588075604 0.09919875108467137
000660 72 19 01 a0 92 1f c0 bf f7 2e 85 8c e9 70 c1 bf
       -0.12596352398595517 -0.13625830994930485
000670 ac 35 d8 20 99 e8 c3 3f 77 c7 cb 24 b4 13 bd bf
       0.15553583244074554 -0.11358190439548631
000680 31 28 70 ac 82 74 d0 3f 24 94 0c b3 8d b4 94 bf
       0.2571112331357908 -0.020220006993572195
000690 07 5b 31 e8 60 50 67 3f 83 cc 29 f6 8a 64 c4 bf
       0.0028459446635155125 -0.1593183233231664
0006a0 59 b1 4d f6 9d 9a a3 3f 42 9e 3b 5e 95 1c a9 3f
       0.038289009395927116 0.049046199563062234
0006b0 09 b7 7c d6 d4 e0 b0 3f a8 ba 5e a7 0d 73 b7 bf
       0.06593065487387774 -0.09159932457144271
0006c0 3f f5 e1 26 85 2c b7 bf b5 91 f1 15 5d 8b 80 3f
       -0.09052307318957718 0.008078315002600126
0006d0 21 87 15 20 73 95 b1 bf 6e f1 4d 67 d4 ce a6 3f
       -0.06868667157462173 0.04454673539200625
0006e0 80 94 6e 7d 89 d1 bb bf 2e 48 2d e2 de b5 ad 3f
       -0.10866603195479918 0.0580281878561809
0006f0 03 81 72 fe 8a ab b9 bf 0b 8c 60 7c ff db c2 3f
       -0.10027378761379073 0.14733880589582812
000700 dc 2b 3d a4 e8 eb b0 bf c5 5b aa e3 88 25 a0 3f
       -0.06609968194713595 0.031536367217249096
000710 e2 ec 29 1b cd f2 b2 3f 86 18 14 3a c3 74 9d 3f
       0.0740173522298622 0.028765726489858888
000720 04 ed f6 c7 bd 60 af 3f 20 2e 91 c2 7d 03 b1 bf
       0.06128495279286919 -0.0664595222489699
000730 fc 23 f4 93 40 42 ab 3f 0b ba 61 16 1a 45 b4 3f
       0.053239839611769896 0.07917941137723276
000740 89 99 b9 a6 d3 7a b5 bf 81 d0 bc 8b 8d 35 b6 3f
       -0.08390543766436144 0.08675465261041106
000750 d0 70 33 b9 b9 3a c2 3f 26 a7 75 46 ad ee 93 bf
       0.1424171594907251 -0.019465167451392727
000760 51 d2 63 1a 25 c3 a7 3f 80 7d 47 e9 66 f5 b8 3f
       0.04641071269171405 0.09749453730863955
000770 ef 4c 94 ad 44 56 85 bf 8a 64 93 dc d4 51 a0 bf
       -0.010418449923724952 -0.0318743247277747
000780 74 9e ac 58 9f 1b a1 bf eb 79 8c f7 f4 55 c8 3f
       -0.03341386754464973 0.19012319648113815
000790 47 5a d6 c2 86 42 89 3f 0f b3 4a 29 7d 94 b1 3f
       0.012333920308077796 0.06867201097584207
0007a0 c3 9b 31 c7 5e ce cd 3f 43 22 db 46 78 89 a7 bf
       0.23286041952380118 -0.04597068657819083
0007b0 8c d4 5a b5 21 07 b4 3f 60 17 b6 73 1c 4f b1 3f
       0.07823382070167123 0.06761339020712631
0007c0 3a 98 35 8b eb ad a8 bf 02 6d 7c 80 78 a0 b4 3f
       -0.04820190500576911 0.08057358872286005
0007d0 ff 0c d8 8f 57 31 a7 bf 56 45 4c 2a d3 9c c4 bf
       -0.045298324879718514 -0.16103591504410514
0007e0 05 a2 19 fd 7b bd b9 bf 0c 33 c0 41 22 10 95 3f
       -0.1005475514335857 0.020569358122929635
0007f0 25 91 f7 ae 9c eb cc bf 58 4d 4a 2f 95 21 b9 3f
       -0.2259403089839306 0.09816868214175167

bias f8 [15]
000000 3b e8 f5 3f 4b d7 a7 bf 82 4a fe 5b b1 23 b1 bf
       -0.04656443744438873 -0.06695087905817768
000010 6d 09 ae 88 4a ac 8b bf 45 17 82 c0 dd 89 b3 3f
       -0.01351221303571456 0.07632242154985842
000020 3f dc bc 6b 86 f4 ae bf 60 b6 21 17 bd 22 ab bf
       -0.060459328319148124 -0.0529994097458768
000030 be 5c 00 62 e1 89 ba bf 99 d2 1c db 56 e8 c2 bf
       -0.10366638796436953 -0.14771543215615138
000040 a0 e7 6c e6 9d 1e af bf 5e 6e 93 ef 24 f8 9a bf
       -0.06078046262560055 -0.026337220308830893
000050 57 bb 9e be 65 28 be 3f 8e 57 5f 6c a2 f0 ab bf
       0.11780391601381034 -0.05457027027993809
000060 db 4a 8d 45 77 67 a6 bf e9 5e 0b 3f 41 32 ae 3f
       -0.04375813220999244 0.05897716421685379
000070 01 05 17 d5 89 13 bf 3f
       0.12139188244238498

weight f8 [15]
000000 6b 5c 58 dc c9 49 ed 3f e1 87 b9 19 d2 68 ef 3f
       0.9152573875061426 0.9815454962192655
000010 0b cd 34 c1 0f 31 f0 3f d7 6d 74 91 d0 1c ef 3f
       1.0119779154891286 0.9722674218095858
000020 aa d1 0b 35 f2 3d f0 3f ad fe da ef 9c df ef 3f
       1.0151235649219452 0.9960465130497674
000030 a6 b2 9d c9 74 b6 f0 3f bb 1b 39 8d 60 ec ee 3f
       1.0445449710488588 0.9663546331656713
000040 6c 25 9d 6f 4a 12 ef 3f 96 3f 8f 09 75 5c ee 3f
       0.9709827594717075 0.9487862765035853
000050 84 44 15 a7 94 48 f0 3f fb f2 87 ca fc 42 f0 3f
       1.0177198912317929 1.016354361664695
000060 4e 11 28 d1 5e 36 f0 3f 24 c0 31 3a 63 0e ef 3f
       1.0132740183044748 0.9705062996490637
000070 a2 c9 77 c2 cc be f0 3f
       1.0465819927600042

bias f8 [15]
000000 2a b2 82 c0 59 d8 c0 3f f1 d9 05 cc f1 69 d2 bf
       0.13160249614647174 -0.2877163402949057
000010 38 4d 78 fb 1a d3 96 bf f8 50 b6 3b 40 e3 b6 bf
       -0.02228967819071423 -0.0894050737172768
000020 b8 21 23 a3 3f 82 9a 3f fa 17 12 91 b5 fe 97 3f
       0.025887483913523218 0.02343257615986969
000030 46 2c 3a 68 b9 db c1 bf c6 b5 6f ad c2 5a 92 3f
       -0.13951795186253174 0.01792434867450312
000040 c0 97 2c fc 9d ac a7 3f 5a 47 ae 9f 12 59 8d bf
       0.046238839180929414 -0.014330049036093296
000050 5c a2 ad 64 ee f0 c2 3f ed 28 d4 df d9 5e cf bf
       0.14797763744288062 -0.24508212498796614
000060 c0 51 7c cf ca 18 b2 bf f5 c3 49 04 7a 3b ac 3f
       -0.07069079938475564 0.05514127065988098
000070 f5 99 9f 39 f9 02 a5 3f
       0.04103831127558869

running_mean f8 [15]
000000 0e 81 19 2d 39 6c f9 bf a4 bd 7c 39 c0 9a 14 c0
       -1.5889217149452324 -5.151123903502057
000010 a0 68 c5 f0 cf c7 f9 bf 2d 98 ba 97 37 c6 fc 3f
       -1.6112822919008423 1.7983928610715438
000020 1a 06 61 20 83 86 13 40 77 9e 21 bf a9 27 12 c0
       4.8813595828264855 -4.538733469416562
000030 ec a3 1d c9 f3 1b 1b c0 b0 5c bf 66 f2 66 1e 40
       -6.7772971557942405 7.600534062795461
000040 7f 02 6a 1c 97 87 20 40 26 17 46 92 1c b4 16 c0
       8.264824760380405 -5.675890241172771
000050 7f c1 33 81 25 fd 1d 40 e6 da c4 4b 2b e8 13 c0
       7.497213381561209 -4.976727661027985
000060 52 4a 3b ee 93 05 f5 bf ec fd cc 6c 89 61 1d c0
       -1.3138617807313904 -7.3452507972828975
000070 31 3c 84 0d e4 a6 00 c0
       -2.0814896636943776

running_var f8 [15]
000000 d4 66 bb ef 06 13 03 40 3e e2 65 38 80 bf 1f 40
       2.384290573984666 7.937012559145442
000010 74 5c 8c 1b 03 04 06 40 b4 50 ed de 00 8f 1c 40
       2.7519590522966215 7.13965175937135
000020 79 3d 8f 4f ac 6b 14 40 f3 30 04 7a 4e 58 14 40
       5.105149500959095 5.086236864572345
000030 4e e9 93 40 f1 79 16 40 47 b1 d3 9f c5 a7 1c 40
       5.6190843668249055 7.163839814468083
000040 26 6e 6a b3 19 23 2a 40 d3 fa f6 ee 4c 2f 14 40
       13.068555456869102 5.046191915344667
000050 a7 68 9e eb 96 66 1e 40 69 2a 96 b1 0d 9c 20 40
       7.60018509058333 8.304791974621553
000060 f5 59 24 92 60 5d 26 40 7d ba 74 d1 2b 9f 22 40
       11.182377402245928 9.310881181239205
000070 03 5a 0d fd 3a 15 1b 40
       6.770732835712354

bias f8 [9]
000000 3e d6 d0 0b d1 58 35 be 3c a5 f6 6f 17 05 15 be
       -4.970221731622885e-09 -1.2235185641149656e-09
000010 c8 da b3 59 50 74 24 be 0a 57 3b 7e 0f 4c 39 be
       -2.3811998602252047e-09 -5.889942731204757e-09
000020 e7 dd d1 2d 55 e9 37 3e dc 35 8c 86 ca cf 2f 3e
       5.5673196860921455e-09 3.7033674359622295e-09
000030 63 a0 c7 9b 6e 3f 32 be c1 24 5d 94 06 4b 38 3e
       -4.248642712364901e-09 5.656170925569832e-09
000040 2c 12 b6 a5 c7 4b 15 be
       -1.2395912272728473e-09

weight f8 [9, 15]
000000 1b 60 f7 61 ad 2f d3 3f 4c 40 1e eb 95 8e cd bf
       0.2997849899961708 -0.23091386776332212
000010 3b 77 e7 d0 99 16 d6 3f 26 dd e3 84 b8 98 cb bf
       0.34512944603726553 -0.21559816826604922
000020 31 88 4d cd 6e 56 d9 bf 6a e2 ee bc 95 23 b0 3f
       -0.39590044068438873 0.06304298269868416
000030 76 76 2b 1c e1 72 d7 bf 7c 03 00 31 3d 5e d6 3f
       -0.36638667822794646 0.34950189385568087
000040 23 4d 76 0f 8a 28 d0 bf 9f 46 4e ee 9a fc bb bf
       -0.2524743224141323 -0.10932319944393008
000050 ce f1 4b 68 7d 4a cd 3f f0 34 6d 62 f0 ca d7 bf
       0.22883575050936006 -0.37176141368838866
000060 a0 44 0d fb e0 9f c2 bf 25 15 b1 b8 20 fb b6 3f
       -0.14550411470785196 0.08976940640521443
000070 c0 47 11 9e 35 ec 97 bf 1b bb 6e 8f 71 f9 d3 3f
       -0.023362005016970278 0.31209982878765324
000080 3b b5 cc 49 1c c5 d0 bf de af ce 19 66 0c db 3f
       -0.2620306702327359 0.4226317646050556
000090 40 b4 06 02 51 27 ca 3f 13 58 37 6d 52 c3 e0 bf
       0.20432484244284588 -0.5238430150154748
0000a0 b8 0e e0 83 0e 5b 7a bf 92 39 1e e0 fe 8b c4 bf
       -0.006434494685894236 -0.160522326882028
0000b0 c5 94 17 a2 4b 67 94 3f c7 97 11 74 de 9b b6 bf
       0.01992529084045171 -0.08831587156018293
0000c0 d0 6a 1e 41 43 ec e1 3f 3c 1b 6f 80 12 41 e0 bf
       0.5600906631328488 -0.5079433926083321
0000d0 04 43 44 42 76 62 d6 bf 52 4f 54 80 09 81 dc bf
       -0.3497596404204588 -0.4453758004394689
0000e0 0e 76 62 26 da b0 a9 3f 63 a6 cc a7 cf 3f c9 bf
       0.050177399812337695 -0.19725986188250308
0000f0 ba 3e a7 56 68 35 b6 bf 7f f2 05 f8 0c 9d dd 3f
       -0.08675243487891296 0.4627106115438337
000100 65 ad 2d d5 bc 14 a0 bf c8 1e 2e bb bd f6 bd 3f
       -0.03140821554446908 0.11704622096851403
000110 c3 39 4e 4b de 0f 85 3f 31 96 06 74 49 47 d1 bf
       0.010284172700065214 -0.2699760087074053
000120 12 40 30 26 c1 0e bb bf fb 63 a2 31 bd 57 db 3f
       -0.10569388563476448 0.4272301659307797
000130 c2 cd 43 f3 c7 ee d8 3f 36 0a 8c e6 ca 6b db 3f
       0.3895740390427954 0.4284541369853828
000140 f9 00 67 a5 79 62 dd 3f ab 78 5b 8d 44 ec d6 bf
       0.45913544800352174 -0.3581706409876328
000150 6a 32 9c 77 9e 87 db bf bc 07 a3 d8 3d 34 91 3f
       -0.43015252762487555 0.01680084833856886
000160 19 29 76 e7 f5 4a d6 3f f2 26 a6 66 ba e7 b4 3f
       0.34832522967976015 0.08166089063720586
000170 da ae 31 56 d5 69 d4 bf 44 83 97 c8 81 f6 c4 3f
       -0.3189595548380858 0.1637727956249596
000180 41 48 8f 11 71 1a df bf 23 ba 28 59 01 55 d1 bf
       -0.48598887171568 -0.27081330973570256
000190 cc 6a fa 11 d2 5f c4 bf fa 2d 02 38 6c a2 c8 3f
       -0.15917421224442874 0.19245674834051824
0001a0 46 71 b5 ef 2c bf dc 3f 71 ac 80 01 e6 69 cc 3f
       0.4491684285074097 0.22198176453943888
0001b0 87 c1 66 7b 09 32 9a bf 95 bb 25 c4 e3 7f e0 3f
       -0.02558150115663829 0.5156115370754032
0001c0 33 ce a4 75 0d c6 d4 bf 2d 97 36 6a b9 ee cd bf
       -0.32458816994332834 -0.23384778677171295
0001d0 43 e5 a6 49 27 8a e0 bf 18 28 17 60 ad 81 bb bf
       -0.5168644369615908 -0.10744746776541125
0001e0 3f 7a 64 81 8d 8c aa bf 19 2f 08 61 dd d2 d4 3f
       -0.05185358242510007 0.3253701636865443
0001f0 40 6e 67 45 61 fc d2 bf 9a 55 4a cc a0 ec df 3f
       -0.29665405061470906 0.4988176341078884
000200 70 6e d4 bc 1a 3b c4 bf 2a f2 34 02 ee e5 c4 3f
       -0.1580537244816358 0.1632668982291688
000210 fb e8 22 cb 1a 13 dc 3f 8f 61 ea 48 2c 7c d7 3f
       0.4386660560372914 0.3669539177003793
000220 59 c8 9f dd 11 31 d7 3f a0 38 63 09 67 3a d8 bf
       0.36236998217566946 -0.3785646049190152
000230 cb 6f 1a bf 6a 1d d7 bf a8 97 f8 40 04 c5 bc 3f
       -0.36117046987942264 0.11238123499114627
000240 ed e2 89 1a 0d 2d b4 bf 92 0f 91 f8 56 f3 da bf
       -0.07881242654719829 -0.42110227846227943
000250 68 12 74 63 32 1b d2 3f 1e b8 14 75 33 c7 de 3f
       0.2829099627709071 0.48090826448140145
000260 81 13 7c 5b ee 43 db 3f 1f d1 7c 64 70 4c ba bf
       0.426021184292317 -0.1027288670855495
000270 72 1b f3 3b e4 93 bd 3f 7e 51 63 86 3b ad bf bf
       0.11553789580930898 -0.12373706847148999
000280 8b 39 e8 18 8a 87 e1 3f 5a c1 8d a4 05 1e de 3f
       0.5477953421084732 0.47058240003300045
000290 6d 2e 67 9d d9 6a d4 bf d7 f0 03 6f c2 f8 c9 3f
       -0.3190216099871808 0.20290403767274398
0002a0 97 94 b3 01 37 47 aa 3f 59 5b 0f e4 a6 12 e0 bf
       0.05132457633752912 -0.5022768453880914
0002b0 69 97 54 4f ad 38 bb 3f 87 76 83 cc 2d 5a dc bf
       0.10633357226160246 -0.4430040833666244
0002c0 af b2 12 57 3e 26 d4 bf 92 ba 71 43 6e a1 b6 3f
       -0.31483419898249115 0.08840073725307665
0002d0 99 0d ab 46 07 12 c5 bf 62 ee b0 5a 77 22 bc bf
       -0.16461268377871077 -0.10990091289652917
0002e0 ef aa 6b 21 1a 66 d9 bf 88 42 c3 77 f0 66 ba 3f
       -0.39685681594589445 0.10313322948355552
0002f0 b2 45 bc 9d 1a 48 c1 3f ca 7d cb f8 d4 22 b3 3f
       0.13501293851781565 0.07475024293989133
000300 f4 45 93 5b 6d 74 e1 bf 8e f6 83 eb 58 ad dc bf
       -0.5454623020725067 -0.44808028220709495
000310 54 c1 93 5c 94 43 a9 bf 9d 44 f3 06 29 c0 bf bf
       -0.04934371595470802 -0.12402588290867063
000320 18 b4 9e 08 af 2f bc 3f 60 27 00 69 f0 c2 c2 bf
       0.11010259590575833 -0.14657406928045713
000330 9d 5e 94 41 25 0c bb 3f 58 b6 8b bf 99 50 12 bf
       0.10565407610953988 -6.986559300133901e-05
000340 7e 9c f3 7e 00 ad 5f bf 38 dc a2 5f 16 dc c0 bf
       -0.0019333367197818248 -0.13171653432593344
000350 f1 59 07 bf d4 8f c8 bf 55 84 95 a3 a3 96 a8 bf
       -0.19188937499593764 -0.048024286001926576
000360 21 4c 41 ec c7 ad c2 3f 63 64 20 12 b8 30 c5 3f
       0.14592837367908465 0.16554928670010147
000370 67 a3 eb ce b7 e5 ce bf 15 cc e5 c4 66 b9 c3 3f
       -0.24138543704546153 0.15409550298827016
000380 83 01 49 9c af ae d5 3f f2 6e 42 c3 5d 40 e0 3f
       0.33878698599075835 0.5078572095548834
000390 5d a6 56 80 09 89 b7 3f 50 cd a3 52 97 48 c9 3f
       0.09193477042449545 0.19752780470990183
0003a0 38 7d 6a ef fe 60 cf 3f fa 1b 89 05 02 63 d4 bf
       0.24514757814629617 -0.31854296246132174
0003b0 1b a3 e6 b9 22 c1 ca bf 17 8e 7b db c4 c5 df 3f
       -0.20901903226083438 0.49644586023188836
0003c0 59 ec e7 15 99 7a d1 3f 32 09 9c 2f f2 80 cf 3f
       0.2731077875066084 0.24612262081797948
0003d0 d5 fa c9 b5 9a 9b bd bf 26 72 62 45 fd 50 a1 3f
       -0.11565558374602898 0.0338210246274893
0003e0 06 d2 ac 91 d3 ba aa 3f ae e3 c0 f5 f4 9f e0 bf
       0.05220662263164759 -0.519525985705618
0003f0 cd a3 70 22 61 4c d9 bf 07 d5 a3 71 74 0f d4 bf
       -0.39528683055192176 -0.31344328973439456
000400 98 88 5f f2 94 83 d9 bf c3 34 15 bd 1f 1d b8 bf
       -0.3986561171460692 -0.09419439665107902
000410 c9 16 5b a0 d2 43 b2 bf 19 65 77 28 5f 60 ac bf
       -0.07134739317833828 -0.055422757806534224
000420 c2 ae 95 2d 41 a4 c6 3f c0 e8 ad 42 ee 69 c3 bf
       0.17688765264334988 -0.151670248564022
000430 70 0c 61 81 e1 44 e3 bf
       -0.6021583105979413

weight f8 [9]
000000 8d 3c 92 13 06 81 f2 3f 74 a7 80 a5 cf ee f7 3f
       1.1564999355794356 1.495803495878559
000010 b9 3a 49 99 f1 0c f5 3f 9b c8 ec 09 62 be f4 3f
       1.3156600940452974 1.2964802158062756
000020 a0 f2 ed 43 fe c6 f6 3f 94 a8 09 a4 2d 13 f4 3f
       1.4235823300834127 1.254682198307397
000030 79 3a 49 40 36 29 f9 3f 54 8b fe d1 49 24 f6 3f
       1.5725615035222786 1.3838594630148764
000040 45 9b 87 6a 35 ab f4 3f
       1.2917989884678758

bias f8 [9]
000000 43 cc cf 33 bd 1e a2 3f 5b 60 fb 9d 41 fd c0 bf
       0.03539077050654573 -0.1327287694355189
000010 cc 04 ac 5b 84 c7 b8 bf f8 75 a9 03 9f d6 a2 3f
       -0.09679438818058655 0.036793679425254966
000020 50 d9 b0 99 b5 59 c5 bf a8 3c 9e 96 91 fc ba bf
       -0.16680021290239688 -0.10541639258575464
000030 86 e6 79 38 f8 f3 bd 3f 65 02 98 77 bd 63 6a 3f
       0.11700393084347568 0.003221387913754636
000040 c9 60 1f cd 46 82 ba 3f
       0.10355036266207941

running_mean f8 [9]
000000 ea 33 d3 47 b9 f8 ca 3f da 23 89 aa 2f 8b b2 3f
       0.21071544653969393 0.07243631280392951
000010 f0 ce f7 4e d4 85 91 3f ae 9c 76 37 d7 d2 c4 3f
       0.017112080879043867 0.16268434723062825
000020 e6 da 2c 31 d3 61 cc bf 20 87 38 34 eb 5d c6 bf
       -0.2217353811372142 -0.1747411732658799
000030 7a 38 67 d2 a3 87 bb 3f f1 34 50 b0 69 08 6e bf
       0.10753845106884966 -0.0036661209328544488
000040 fc 1e bb 5e 18 a7 8c bf
       -0.013990583792647275

running_var f8 [9]
000000 b0 cc ee 59 a1 1d eb 3f db 97 c8 4c 1f 8c 0a 40
       0.8473669773578845 3.3184190748897726
000010 35 a1 d6 83 0a 4e 08 40 e0 53 b9 5e b9 dc 0a 40
       3.038105993258933 3.3577754402453905
000020 5b a0 8e 76 f0 da e1 3f 3e 61 bd 84 bc e6 0b 40
       0.5579759898728399 3.4876642580312867
000030 62 40 4f 99 32 ca ea 3f 79 48 ed 27 02 fe fd 3f
       0.8371823305442485 1.874513774837878
000040 42 52 56 f8 0c cb f7 3f
       1.4870729160949314
