code/models/model2.pt (torch, 616135 bytes, 50 tensors)

att_src f8 [1, 3, 15]
00000000: 932c 1980 7a95 e2bf b530 78dc 7319 d5bf
00000010: bdab cb82 fdf1 cabf 7e3b c654 b24e d03f
00000020: de68 3660 ce7f e0bf ca33 f9b1 4d68 cebf
00000030: 2194 ed30 4e0c e3bf efba 2473 b266 d63f
00000040: 5394 7f0d 209a d13f 96be 1f52 b65f d7bf
00000050: d10a 4cd3 7f46 c93f b735 7e44 34ea ddbf
00000060: b99c 8537 a8e2 e13f bba0 acd5 fc75 cf3f
00000070: 9f85 c499 fc8b cabf f898 7e6b b05d b63f
00000080: d4e4 4d66 f200 ccbf 0a4b b120 c38d ce3f
00000090: 9689 76a3 c3d6 d1bf 9f3e 9d98 78b8 c8bf
000000a0: 3523 f87f ce2a dabf 83a8 2efc c1a0 62bf
000000b0: 5ee5 2e8f f423 de3f 3afe 8d6f a447 d43f
000000c0: d653 3eb0 61c7 d03f 65f3 2891 14c3 d4bf
000000d0: 3340 0d2f 70a2 d73f 82db c2e1 0fc7 da3f
000000e0: 7367 b5b4 ee68 dcbf 7cc6 a5c6 79f0 943f
000000f0: d4e6 4160 e60e e0bf 64bb b17e d13c b0bf
00000100: 5531 2e50 c165 e1bf 81c6 9579 14ee e2bf
00000110: 5730 c05e 9f09 b33f 3e7b 4cf1 5b89 d1bf
00000120: b364 09c6 f958 e0bf c84e 7fa5 1754 ca3f
00000130: 5dc6 d72f 60af ce3f aa99 6f77 9ac0 dc3f
00000140: c04f 2d37 9be9 e0bf 2ac8 2bd0 3011 ccbf
00000150: b06d ecc3 bbed c93f d3df b38f 3b65 bfbf
00000160: 06e2 5b46 cf96 d8bf
-0.5807468892975457 -0.3296785023710627 -0.21050995718482382 0.2548032596468416 -0.5156013373519064 -0.2375580901156396 -0.595252128183919 0.3500181316802999
0.27503205602835584 -0.36521680850908333 0.19746396844137462 -0.467419688117697 0.558918102685218 0.24578819688145423 -0.2073970557039901 0.08736708282831163
-0.2187788962872107 0.2387012395507429 -0.2787331672972412 -0.19312961055628805 -0.40886270997048096 -0.0022739208956937275 0.4709445379517855 0.3168727006340962
0.26216928683544205 -0.32440675903108335 0.36928944201372643 0.4183997826289031 -0.44390456816983387 0.020448591947064262 -0.5018188362148188 -0.06342801421281546
-0.5436712804817413 -0.5915624975879866 0.07436557830095701 -0.2740087372239265 -0.5108612888244778 0.2056912954418435 0.23972704254224456 0.44925557769456737
-0.5285163953471894 -0.21927461781121 0.2025675493867829 -0.12263843782773103 -0.3842046916102223

att_dst f8 [1, 3, 15]
00000000: 296d 4596 0f9b 853f a5b7 2c07 d7eb c33f
00000010: 4d3c 3fdb b29a adbf 6988 6eb9 415a e5bf
00000020: 2423 2b5e ecd2 d7bf e9e8 f0c4 fe54 d4bf
00000030: cffd ecec 5ae2 e23f 9fac 6d4f 5e46 b7bf
00000040: 36cb d473 7fd4 df3f 91b8 f718 d900 c2bf
00000050: 06ae e799 45c0 923f 1fdc 3759 e547 dfbf
00000060: 5f53 e8d5 9ee9 c93f 1ff6 2a34 ddec d9bf
00000070: 00d7 7f6e a2b7 d0bf 0507 4af3 4c24 e7bf
00000080: 6dd7 40f1 9a3b e2bf 6c03 78c1 deaf ccbf
00000090: 84fd abaf 0073 ddbf e7bb b497 909d 60bf
000000a0: d568 58f2 5101 b53f a3e8 e73d 3e0f d0bf
000000b0: 3578 c0c1 0300 dcbf 7eb4 b834 1410 d83f
000000c0: fe75 7c03 11bf ab3f 2e5a 878b 7498 da3f
000000d0: 3c48 50cc a1d7 c83f 8cd9 a476 350e dabf
000000e0: bbe1 e047 6b1b d73f ee1c ab91 6e3a e3bf
000000f0: ef9a 2fc3 4fc8 c93f 4da6 9977 b3d8 dbbf
00000100: 1a44 6808 564b de3f 5105 0cb9 e194 cf3f
00000110: 0c56 cbae a0a6 dc3f 93fd b75a 6f9d d9bf
00000120: 4f26 20f3 ef16 d83f db3a c1b4 e79f b4bf
00000130: cf40 9dd7 c0dc c4bf 00ab 34a6 13cc df3f
00000140: 6dc6 902a b188 b1bf b6be 3455 4d79 d1bf
00000150: dbac c8f4 05a6 d43f 7b12 3f7e f664 a43f
00000160: 97b6 750f 8152 a8bf
0.010549661420262329 0.15563476419759784 -0.05782088209490919 -0.6672676679338682 -0.37224873729842245 -0.3176876948597412 0.5901312472778332 -0.09091748656435293
0.4973448401607813 -0.14065088004230522 0.018311584013572378 -0.48876317703929034 0.20244203037932615 -0.405082035966048 -0.2612081603141263 -0.7231812240354151
-0.5697760307291283 -0.22411713072508677 -0.4601442065758976 -0.0020282577585457487 0.08205139319071304 -0.2509303669500104 -0.4375008957011944 0.37598137997230896
0.054192096400793574 0.4155551302514223 0.1940805671334277 -0.40711723886797624 0.36104852694873174 -0.60088280154096 0.2014255240494189 -0.4351013820620196
0.4733481485464509 0.24673100982185273 0.44767014570001673 -0.4002340684819156 0.3763999819062506 -0.08056495821913805 -0.16298685577431235 0.49683085661915527
-0.06849200524518446 -0.2730286914911447 0.3226332560031559 0.039832785521444834 -0.047504456650910125

bias f8 [45]
00000000: e89f 171d def2 be3d b591 d0ff b8da bf3d
00000010: ea60 24bb bde5 d23d 9c34 8c3e c29e ed3d
00000020: ae57 0c89 6d21 aebd 5354 8a4e 6557 eabd
00000030: 7333 f885 d503 8ebd 5765 d950 e42b dfbd
00000040: 776a f1bf 46c6 e03d 5ea6 b4a8 9995 de3d
00000050: 66dc afd4 e1b2 bfbd 6b74 28a7 3703 dabd
00000060: 9b4f d791 e85a ba3d d6e9 7e19 29c4 c7bd
00000070: f43e 7431 9f48 9ebd f05d 0a24 2919 d8bd
00000080: 84ce 5565 f72a e8bd 66b8 8c73 e6c2 9e3d
00000090: 2028 b202 40cc c5bd dc0b bf43 2187 bdbd
000000a0: 89a2 4e48 e5fd dcbd 986e a045 0a5e d7bd
000000b0: 0450 b670 7944 ddbd 3fca 98c9 5a6b 9fbd
000000c0: 3220 1410 2b1f d7bd 1850 3ff5 d19b b53d
000000d0: d1a5 f7dc 21e8 d23d 26e6 2502 7ffd db3d
000000e0: 1211 4803 3697 cc3d b777 1fcb 9bf3 c7bd
000000f0: 03a5 e967 a432 bf3d 6f0b 13f4 ed53 e8bd
00000100: da65 6c2b d3b0 e43d d2a7 f21a 03bc a83d
00000110: 9f7c 1182 3d83 d33d 5c7e a80c 0393 a3bd
00000120: 93fe 94dc 6398 b43d 2cc3 8f0c a3d6 d3bd
00000130: d675 de7d 552d f03d 5076 228d 6109 e53d
00000140: d820 cd23 ba6f e1bd 0bf6 8a3f 1146 df3d
00000150: f682 42d6 bc0e cb3d 2aca f6bf dd62 cebd
00000160: ed89 5d61 8154 d53d
2.8147680209446764e-11 2.897139471763986e-11 6.87484364449899e-11 2.1551496635373215e-10 -1.3701800356428911e-11 -1.9165883400320982e-10 -3.412307803191295e-12 -1.1340108384645373e-10
1.2205067509734757e-10 1.1126531135366426e-10 -2.8829852821827052e-11 -9.463317090846694e-11 2.3969834030019212e-11 -4.323056078650009e-11 -6.885711421808569e-12 -8.766904651031843e-11
-1.758441609923174e-10 6.994316415508029e-12 -3.965006130454574e-11 -2.6855424337583555e-11 -1.0547148057426367e-10 -8.500990311573187e-11 -1.064744648161458e-10 -7.143934012020378e-12
-8.411643952527774e-11 1.9652973109981038e-11 6.87824166042297e-11 1.0182782441641131e-10 5.2006121987147055e-11 -4.356769926630333e-11 2.8374253029218634e-11 -1.7700840275920432e-10
1.505448176811497e-10 1.1247913054187665e-11 7.09866336867275e-11 -8.901345282016971e-12 1.873129237340391e-11 -7.217177128530316e-11 2.3540758046796667e-10 1.5306173565344814e-10
-1.2686675486248238e-10 1.1377306031813018e-10 4.921743115705551e-11 -5.5272168782412646e-11 7.759844879626434e-11

weight f8 [45, 6]
00000000: df61 fd84 2113 b23f 9f2e aa22 6f41 c53f
00000010: 84f9 a2ab 4c04 c4bf cd53 5adf 81af b83f
00000020: a4ca 4813 338d d13f c4fa d408 887f a9bf
00000030: 88a2 cd8c beda af3f c36d 981e 77be cbbf
00000040: 7088 d97f 9ec1 b5bf 2bd5 6ac1 80ee b73f
00000050: 42ff c7cc e955 c1bf 274b 59e7 7d36 b53f
00000060: ee67 e6ab cda7 c8bf 6b8b d0f5 a993 d43f
00000070: fc7b 61d9 0c07 b4bf 8190 0ff5 ab0a d4bf
00000080: 5084 455c 5276 c5bf 14d3 b15f 8e77 d13f
00000090: 3341 4695 8674 b33f 200b 8c91 a73c c5bf
000000a0: c04f 016a 874e 953f d9fa 4196 a577 9f3f
000000b0: 08e2 a2cd 3317 b5bf 1d51 34f7 9006 b13f
000000c0: 07f9 2c84 c44a ce3f cd30 6579 8533 bc3f
000000d0: 3908 085e a829 d0bf 161a 828b 2ee6 b63f
000000e0: b546 5673 07e0 cabf 2a33 4a98 9113 aa3f
000000f0: 96f4 ced5 fe7e d43f 3e89 953b be2c c33f
00000100: cfc3 2b5a 0f35 d63f 2a62 dbd1 adea a93f
00000110: 504d 6c2c 67c5 c23f 36fb 7dda fcc0 c3bf
00000120: af01 ed1a df62 c73f 6cac dded 23ce 953f
00000130: 947a 8c1e a3f3 cdbf 66f4 694a fa4e c0bf
00000140: 1753 86f5 9ab8 d73f 7029 4f74 a013 813f
00000150: a2cf df57 96ce c5bf 878a 6f01 6d76 c03f
00000160: 885b 57ff 1e55 d03f b881 90df 77a7 b93f
00000170: 5f09 414d 2b42 c03f b6fd 89ce b9f8 b93f
00000180: 8a87 dddb 28e9 c73f 688a f7d5 7c49 b0bf
00000190: 28d1 a81c a716 d33f 274b cb43 ddc5 d4bf
000001a0: 2f89 6050 4420 cbbf e82d da64 4c81 d03f
000001b0: 7e9f e36a fa91 c23f f696 0ce3 d74c c33f
000001c0: 6ec4 1563 f47a aabf 4e43 4da9 85bc d2bf
000001d0: 0cc4 60b2 b2a5 a43f e6d2 4956 208c d1bf
000001e0: 6798 9c7b d816 cbbf d7dd ae3f 6557 bf3f
000001f0: 25e3 178b 870e d23f 3d08 7a9f 97c6 a13f
00000200: abf0 e95b 11f6 d6bf a869 aeaf 4a0b c8bf
00000210: 2116 c3a6 fc53 d23f adad cebf c7e3 c1bf
00000220: ccb4 af3c d8f5 babf cccb 84ff 6374 c3bf
00000230: 4b62 fce7 ecbf d33f 8b22 c94b 9b3e c73f
00000240: 3445 afd6 55da b6bf 8301 1cf3 004e d1bf
00000250: 990d 4a3b fea8 cfbf 3e63 891f d816 b4bf
00000260: 6c8a b329 ddda a43f 979f 21d5 709d ccbf
00000270: d8f8 6a04 b20b d7bf 3ffa 2e01 548d b03f
00000280: 2cb6 562e 30d6 ba3f 3049 60d7 c615 c2bf
00000290: eb60 4874 ff0b cb3f 4656 0be3 cb60 c03f
000002a0: 33d6 9c9b 670b c13f a873 776c c2f1 bb3f
000002b0: 7ce1 73aa e0cb d1bf 3501 a1f5 27c8 c6bf
000002c0: fea5 54b8 5f31 b5bf 88a4 e845 b242 d23f
000002d0: 7cb8 f41b 3931 b43f 0969 4c38 5983 c33f
000002e0: e882 ab59 6cec d0bf 32a4 830f da3a c43f
000002f0: ae15 d1e7 d231 cf3f 3416 dcd6 47a7 cfbf
00000300: 3757 32f6 87b4 c2bf 3ed4 dcc5 30c0 d63f
00000310: f832 0c3d 973f c0bf 8f3e dcbc 5d2f 98bf
00000320: b006 035e fc8d b8bf ba72 1d2b 05e1 d1bf
00000330: 1816 4e9c da9b acbf 4793 e4a2 c08e cdbf
00000340: b68a 1225 082c b23f 2488 c0b5 946b d1bf
00000350: 085e 017b fc76 c2bf 7c4b 06b9 3100 cfbf
00000360: fe5c 80ec c3ba c4bf d8e8 bc37 f41d c23f
00000370: cf08 587c 6b0c 933f ff39 9c54 abb8 a23f
00000380: 38e0 a7c7 6ded bfbf a182 b0cc b281 c9bf
00000390: c4f5 91e4 b203 cebf 315c 5a1e f29b d2bf
000003a0: 4800 b9e4 51f6 c63f 4230 e7be 01bd cebf
000003b0: 1dc1 a462 9f0e bb3f dbae 7087 201d cd3f
000003c0: b928 0091 c98e d5bf 9f5d bd35 3c9e b5bf
000003d0: 0415 26cb e0f4 89bf cd10 de13 9dd7 c23f
000003e0: edb9 14fb fae8 d23f 51f1 c593 1787 b4bf
000003f0: 40c8 a787 eda2 cebf efdf 5608 6f2e cebf
00000400: f0e1 e495 3a5f b9bf 6dae 59ac 6270 c1bf
00000410: 0c9f 886a c2d4 ae3f 4bf3 c6c1 aaaf cebf
00000420: 4437 4b8b 139f d1bf 3673 f8fa 3a59 ca3f
00000430: 4862 6869 5584 cb3f c8a0 490d 963b d0bf
00000440: bbce b636 7547 b7bf 7930 830a ae6e b9bf
00000450: d732 b213 c696 d03f 9ae8 dc2b 4213 d63f
00000460: 48b9 d905 8a99 d5bf f7ff 5431 2568 abbf
00000470: b3f3 a24e 20d2 bdbf 61fa ee14 8a96 cfbf
00000480: 058f 75f5 712c be3f 03f3 9f92 7906 c73f
00000490: 3172 839c b7d4 b6bf e993 df47 ef7e b5bf
000004a0: 9d42 6d7b 3ff1 b53f 8391 c7ca 653e c8bf
000004b0: 2c56 6bcd aaaf bf3f 535b efc6 f2e3 cd3f
000004c0: d29f e527 df70 d13f ac7b 68e1 3f6c d53f
000004d0: 4cbd 9f1c 3e0e c7bf 1a5b 5c47 ca4c c5bf
000004e0: 3ad0 8f64 8fdc d3bf 285d 9494 374d a63f
000004f0: 44a1 46de ad48 ba3f 0dd3 22e8 376a c5bf
00000500: 7dfe 9c1a 9d29 cabf 541b 0fe0 eb15 c7bf
00000510: 2b29 f7c6 b2fb bbbf 2449 91a0 b587 bd3f
00000520: a6bb 661e 6979 d13f 9405 2b3b d343 60bf
00000530: 6892 adf8 fb8a c93f c4ef 8875 c6d1 9e3f
00000540: 78fa 2939 ae77 d23f 65e8 8f4c 0b16 c03f
00000550: 12c0 85ea fd6f bebf e0d6 be8f 8f31 c93f
00000560: 76d4 16ae 086b c7bf b897 6882 5280 b23f
00000570: 34ec c4d4 e6e2 aabf c036 8773 367c d1bf
00000580: 4527 0721 f146 ce3f f3cf cddb ad3e bdbf
00000590: 9587 1df8 071f c83f 88c7 607b bf66 c0bf
000005a0: 7b2d 4477 591c b7bf aada f698 d691 ccbf
000005b0: 776d 5893 960f b23f eee9 987c a6ee d23f
000005c0: 703c d73c 160b d2bf d8f3 1724 7ab1 ab3f
000005d0: 4af8 925b cdf2 c3bf 8428 2a89 f8cb cd3f
000005e0: 71fd e5a2 a6d9 d3bf c9c7 3d37 e6bd d2bf
000005f0: 5447 85ab 2e4e c6bf be24 458d 325d cdbf
00000600: c82d b22b c6b5 b2bf 6a48 fb05 5ac4 d0bf
00000610: 2603 c1be d05d c63f 8974 191c 5506 b13f
00000620: 4494 6615 3065 c0bf 7f38 9bb9 4168 bcbf
00000630: 9dab 740e 7654 b3bf 9738 cffb 7310 84bf
00000640: a224 c9c2 9916 cfbf b384 6b71 fb51 b9bf
00000650: 82ea 579f a48e d9bf 1666 420c 14d2 b63f
00000660: 2cab 0b59 49e5 cebf 74fe 1f42 adcd cbbf
00000670: 8659 117d 82a4 d73f 7c11 63e4 1516 d0bf
00000680: 2c0a 4271 6e8b c53f 82fd fbfe 730d d1bf
00000690: fac1 a2b8 a34b ccbf ae0b 539a b3c2 d03f
000006a0: 99c5 e90f 9330 d33f 0d95 36cc 0da3 c3bf
000006b0: 2562 9734 26e2 d5bf 1059 f2d1 a504 a3bf
000006c0: 8520 7c95 51c1 903f 51b1 5fc0 4ec6 a5bf
000006d0: a3ea 9fef fd2e babf 87a5 807b 1216 d2bf
000006e0: a40e 552a ac22 b7bf 4dca 8824 0c03 80bf
000006f0: bbb1 e651 6a5b d4bf 99ba ff58 e46f d0bf
00000700: f4c4 9bdc eaea b03f 44b9 7da2 ef86 b83f
00000710: a4ff 04da 3072 d03f 6c3e 82ba 3d0d b73f
00000720: 2316 d618 92a7 c9bf 22ba 44e2 f809 bb3f
00000730: 4f31 0fa4 57d3 c83f 92c1 68a3 d40b cd3f
00000740: 78b1 f005 ef4a d43f 7251 f216 ad2c d33f
00000750: 5b8b fcca 7086 c53f 4514 4c22 d39f d3bf
00000760: 16a1 e542 6d6e d43f c366 9aed 93f9 d2bf
00000770: 5308 4061 5753 d4bf 51c5 a4f3 8cb4 d5bf
00000780: 64e8 5b06 c77a c8bf d72d 7b0d 56a1 bd3f
00000790: 9345 d6c8 3536 bf3f 8b54 e61a c3b2 bb3f
000007a0: b0f2 9ff9 dc22 d43f 09d3 9fba b867 a4bf
000007b0: 62ca 91fb ff4f ba3f 8864 7dfe 8acf c83f
000007c0: ab93 cede 6cb7 c53f d1e0 2cc9 37b0 cebf
000007d0: c36d eebc dbf2 bbbf 5f17 e70c 4752 bc3f
000007e0: f10b 41f6 9caf af3f cfc1 030a 79b5 c13f
000007f0: 2a71 3d30 da23 cf3f 3e5b 99b3 5a07 d33f
0.07060441490955992 0.16605939095130837 -0.1563812101430352 0.0964280290884993 0.27424313433872727 -0.04980111224948794 0.06221576184072314 -0.21675003999631146
-0.08498564359027383 0.09348301622488424 -0.13543436526378555 0.08286272905506263 -0.19262095349841907 0.3215126896413298 -0.07823257739208594 -0.31315134937018035
-0.167673392347782 0.27292212815454886 0.07599679130931207 -0.1659135304144792 0.020807376713790182 0.030729853912357583 -0.08238528986374416 0.06650644335997354
0.23665672735109686 0.11016115392448285 -0.25254258330108176 0.08944979577982112 -0.2099618256730104 0.05093054756171107 0.3202511871311996 0.14980295094853519
0.34698852353818394 0.05061858355265188 0.14664926213354557 -0.15432701748428607 0.18270481886612575 0.021294175522978895 -0.23399771682393988 -0.1274102080678034
0.37064241387388236 0.00833821635196294 -0.17036704340682457 0.12861406869986444 0.25519537864368447 0.1002116127788274 0.1270193221299207 0.10145150463539818
0.18680296645748867 -0.06362133239557866 0.2982576160313948 -0.3245766794254216 -0.21192220616019017 0.2578917488942509 0.145079900924653 0.15078257166276615
-0.05171931943449058 -0.29275647672061644 0.04032667567697254 -0.27417763163184217 -0.21163469348647654 0.12242729954493058 0.282136808236418 0.03471826383339802
-0.3587687871547682 -0.18784459665478193 0.2863761547599513 -0.13976380220024734 -0.1053137920532265 -0.15198945976734846 0.3085891976821002 0.18159810257408923
-0.08926903239559608 -0.2703859686007705 -0.24734475989326368 -0.07847357530534979 0.04073229917573404 -0.2235547104530695 -0.3600888293402824 0.06465649632353009
0.10483075267139758 -0.14128957287227584 0.21130364587657566 0.12795399271151292 0.1331605443789826 0.1091577067194992 -0.2780687012268783 -0.17798327916717374
-0.08278463602314187 0.28532082392718694 0.0788760846378142 0.15244593857716662 -0.2644301295932068 0.15804601438074567 0.24370800322701086 -0.24729249945828402
-0.1461343719608352 0.35548037836571555 -0.12694063645212572 -0.023618187572593426 -0.09591653151712864 -0.27935914240314796 -0.05587657125492401 -0.23091896013024835
0.07098437218750572 -0.27219121693826964 -0.14425617223854226 -0.24219342741397643 -0.1619496254722676 0.14153912278727065 0.018602065529201902 0.03656516464080894
-0.1247166264000733 -0.19927058214763796 -0.23448787842418828 -0.29076817478329803 0.17939208667849216 -0.24014303037108858 0.10569187315264057 0.22745138753213365
-0.33684004936425144 -0.08444572746281274 -0.012674099158866976 0.14720500440683396 0.29546999473214336 -0.08018634183639974 -0.23934716342734141 -0.23579204470820467
-0.09910932693026786 -0.13624223151724682 0.06021697569332049 -0.23973593198561569 -0.2753342495242246 0.20584809545916877 0.2149760021864202 -0.253636849380666
-0.09093411050599347 -0.09934509045268837 0.25920249865957373 0.3449254444455022 -0.3374962861188533 -0.05352894046018258 -0.11648752136075195 -0.24678159734863228
0.1178656791940363 0.1798850980702796 -0.0891833073723738 -0.08396811966629482 0.0857124019942241 -0.18940422440858748 0.12377421870345334 0.23351893151876854
0.2725141420000884 0.33473202717316997 -0.18012215039878254 -0.166405949443935 -0.31033692188725903 0.04355786980357329 0.1026714961686866 -0.1673040278889392
-0.20439494895434854 -0.1803564876592768 -0.10930936200671641 0.11535201234918141 0.2730353161704734 -0.001985466538230349 0.19955396311265194 0.030097103999864108
0.28855472166461693 0.12567273367295964 -0.11889636016508145 0.1968249751932296 -0.1829539156002828 0.07227054294398172 -0.05251237246780996 -0.27320634157227275
0.23653997528736617 -0.1142376577025173 0.18844699492461517 -0.12813561939543328 -0.09027632867598882 -0.22320063084562963 0.07055035683918286 0.29581606071192723
-0.281926688589869 0.05408841791720648 -0.1558472344531217 0.2327871961354654 -0.3101593581013367 -0.2928405322519408 -0.17426093459158187 -0.2294066610141154
-0.07308615271374841 -0.26198435386789376 0.17473801912458348 0.06650287567159031 -0.12808800740200088 -0.11096583157925187 -0.07550752499507359 -0.009797006723513397
-0.24287721644421817 -0.09890719908755123 -0.39933124123459873 0.08914304065037756 -0.2413722691338419 -0.21721425751455892 0.3694158765187229 -0.2513479929296165
0.16831760912107663 -0.2664461126405159 -0.2210583354513032 0.2618836409639539 0.29983974985142364 -0.15341351004932627 -0.34192805419800926 -0.0371448344023283
0.01636245226748702 -0.04252859209359151 -0.10227954006397026 -0.2825971799926141 -0.09037281068327246 -0.007818312516154747 -0.31807954786452414 -0.25682934466650803
0.06608455549191544 0.09580896107738562 0.25696965495080293 0.0900457935660996 -0.20042635166844133 0.10562091373569918 0.19394965658865224 0.2269235418220999
0.31707358913515504 0.2996018146598295 0.16816530143213523 -0.3066299281056824 0.3192399171152983 -0.2964830227225372 -0.3175867509563705 -0.3391449336368924
-0.1912468701410176 0.11574304417734226 0.12192093041655587 0.10819644362193707 0.31462787988111085 -0.03985383298996765 0.10278320209344252 0.19383370805988798
0.16966019515271333 -0.239752743940477 -0.10917447435934151 0.11063045563704808 0.06188669687301019 0.13835061062810758 0.2432816253230013 0.2973238710305174

weight f8 [15, 45]
00000000: 4c2e 3f46 8d29 babf 217b ed07 7742 c5bf
00000010: 12c6 86ca e703 c5bf d82f 5b0f b04c c2bf
00000020: d57a fab3 84cf 87bf b0d3 3313 7c29 a63f
00000030: 7131 38d1 ff53 ac3f d963 aff1 690c 913f
00000040: 0fa9 159d 45b1 bd3f 2dd3 1190 42b5 7a3f
00000050: 68fa 7849 8ffc bfbf 13cd 23e7 5276 9a3f
00000060: ea46 9c29 79bb c03f f5e2 54dc 0e14 773f
00000070: 8c58 49fe d9e9 bb3f d450 05f1 cfb6 ab3f
00000080: dbf4 35de 82fc 9c3f 1cd5 0670 cb15 b7bf
00000090: effb 00c0 3029 b7bf 7901 54eb 8ce0 bb3f
000000a0: 4f7d 6c0d 9ba5 a2bf afc8 7973 f6fd bf3f
000000b0: 201a 650f 6f89 ab3f bb69 a1a8 c51d a9bf
000000c0: 98f0 4d18 f2b7 a9bf 116d d741 e5ac be3f
000000d0: a7ec 45d9 4111 c2bf 0161 79ea ef76 c13f
000000e0: e395 5a6e 0c1a c1bf cf42 e348 1b19 ad3f
000000f0: 6b28 0841 12be bc3f d52f fede cff8 aebf
00000100: 0fcb 44de b3fd bb3f efc4 8466 cea3 c6bf
00000110: 97cb 2ac7 060c b03f a2bc eae9 16e1 c5bf
00000120: 6ad0 e0d4 6034 53bf 8450 5bdc 57e4 b0bf
00000130: a3a2 261a 28a2 b73f d935 b345 c84e b83f
00000140: 7435 a947 e8f1 b23f 25d1 dcbd 794b 513f
00000150: 3dbd 791c 0ca5 a03f 3dd1 ca75 361b a43f
00000160: bc66 d284 25a1 aa3f a0d0 5908 db5e a83f
00000170: ae76 f174 5db0 a13f ed0a 65e1 a98a bebf
00000180: a9e3 78a0 862b bfbf 4c67 fe14 921f a93f
00000190: 726b 8829 5803 c1bf f77d 0caf 05f7 a0bf
000001a0: 31cd 725f 3417 b13f ffcc d9b5 7717 a1bf
000001b0: b574 89b3 062e 96bf 6202 62be 9eaa c43f
000001c0: 5b1c 9c4d 2d48 a23f 5836 e993 9db0 b83f
000001d0: 83f7 6ece e3c0 b23f d07d a4c2 5581 b4bf
000001e0: def5 47e2 794d bbbf 36c0 679b c52a b4bf
000001f0: a3f0 6172 6260 a6bf 988f c0b0 b008 a23f
00000200: a040 5183 c9a9 bdbf 20e4 5dc4 abdc bdbf
00000210: d53a 899d f6e0 b43f d025 7efc 0d98 9dbf
00000220: 7627 06f5 f09f b03f bf85 ddd5 57cf a7bf
00000230: cfd2 a6fe 042a c2bf 02ad 94ce 318a b93f
00000240: c073 7849 8d51 b4bf dafb 694e 512a a33f
00000250: 7fa2 26bf b0c8 9abf a801 2b5f 9f95 c43f
00000260: f899 5314 6482 a03f caeb f9b2 bfe8 c03f
00000270: cd47 b12a aea7 713f bb3d d54c 737c bebf
00000280: 7654 a078 cdf7 a9bf 3c46 6f6f 059d b43f
00000290: c2fe 025c 296a 9fbf 5254 201e 90c4 c2bf
000002a0: ae07 2c7f f3d4 b13f 816f 3802 d54c a93f
000002b0: 7c9e e6d5 20f6 bc3f bf40 1e95 697a c13f
000002c0: 5c6b 00cd 2066 9ebf 4a6b 65c4 45de 98bf
000002d0: 9238 55b4 2885 b03f e6fd 38bc cc1b afbf
000002e0: b948 72ac aed4 b33f a1e0 2c8d bc74 a7bf
000002f0: 33d6 9d11 1435 bbbf b373 09bd 5e08 b83f
00000300: 618e fd9f 3037 ae3f eb36 8761 7c83 c23f
00000310: fe89 5722 c9f9 c2bf b710 aaee d2b4 933f
00000320: 73a8 149a 08c0 b83f 220f 36a8 d021 bd3f
00000330: bfc6 cce2 d6b2 83bf 8c42 39d9 d30b 96bf
00000340: 3bb7 a2e8 2143 bb3f 629e b237 016c a93f
00000350: 98cf 7fb0 e374 b93f 2b64 4502 0094 b93f
00000360: dda9 cc21 13ef a53f b4a2 5348 ce89 bb3f
00000370: 3a82 3944 c222 b23f 2120 1a3e b508 973f
00000380: 560c 0eff 25db b43f a735 72db 0bda c0bf
00000390: 2149 e993 ea8e c33f 49a3 d3cb e542 b4bf
000003a0: 2c3f 5b6e 2d6c 72bf 3a6e e250 ea40 a93f
000003b0: 9893 bdb5 99fe 92bf 5300 13d7 e673 b73f
000003c0: f8fd 3c5f 17cc a1bf d8a7 ad03 a820 a4bf
000003d0: 835b 6e73 0e47 bebf e062 43e4 6edd b3bf
000003e0: 7b87 9edd ed8c b8bf bc42 d00d 2eab 96bf
000003f0: 58b4 f34c 7c73 843f 16cc 59c6 035a 8d3f
00000400: 5c58 f2f9 d205 babf 054a fec8 1734 bebf
00000410: abce 6319 fb77 9b3f 4c2c f903 2c7b c2bf
00000420: 569d 55a3 3330 bb3f 815c 735f b700 aebf
00000430: c7c7 0e71 ef52 bfbf f211 5608 7681 bb3f
00000440: 0c0f b0fc f2cc b3bf 88dd 6ac1 8c64 b03f
00000450: 4277 69a5 50b4 adbf cc5c b6dc 08c6 a63f
00000460: 585a fa18 a37e 9cbf 175d b081 6ba3 c3bf
00000470: 12fe 9e91 2533 b93f a251 d521 5751 c0bf
00000480: d969 7c34 9467 9c3f fbb4 52c5 9ad5 b63f
00000490: 9b90 c78c 7cc5 b9bf c89c 5ad4 bccc b33f
000004a0: e807 41d6 65ef 893f bc81 9df3 9b35 a6bf
000004b0: 3f5f 3431 2955 ad3f c71f 1856 aad5 ad3f
000004c0: ecb5 2888 0f4b c03f 43df adeb c2be b53f
000004d0: c4ad c97c 7dab 983f 03ba fc39 0219 c5bf
000004e0: 634d 8796 a95e c0bf d28d 2f90 568a b5bf
000004f0: d50e b11c 3ad4 b73f 3f13 0f52 1683 b53f
00000500: efc4 e284 fdb1 97bf d2c5 8ade 532b 98bf
00000510: 5050 8549 1205 a03f c39c 5a9c 4247 743f
00000520: 51ca 5049 ad5d b6bf 6e3b bca4 c2da b83f
00000530: 60b1 979f b627 a4bf 80a5 3c1e e87e bf3f
00000540: 4e34 f8d2 4249 99bf 9fbc 3d88 98c9 bb3f
00000550: 28f3 1c60 e7ec be3f 59f9 d200 fd90 bbbf
00000560: 6ad7 5ebd a77e 88bf 2755 5ed2 9016 b13f
00000570: a832 9eeb 4f46 aabf 92c4 94d2 9db4 9abf
00000580: 83b8 a53b b51b c23f 9f0f bcb3 eceb a0bf
00000590: 7e76 da5e 7425 aa3f b66b c560 25cf bfbf
000005a0: a16b 3541 7c46 be3f 4d97 4e89 a23c bd3f
000005b0: b96f 81d9 f857 c3bf b27f 895c ef9e c13f
000005c0: 1af9 f212 bf57 a23f 3967 73c9 0fce b4bf
000005d0: 63d4 8646 74ff c3bf f48c 873b d5ab 8a3f
000005e0: 8c46 86a7 fd0b acbf 5f65 2f41 80cf b73f
000005f0: 0379 bde6 1e12 b4bf d3ce afa1 f4a8 8d3f
00000600: d2e2 0b37 b6ec b0bf 950f ac78 7986 9fbf
00000610: 3b88 3909 cbb2 923f 080a ecae 8b36 b8bf
00000620: 97b1 f007 68ca b7bf 911d 2c7a 9346 ba3f
00000630: 88c4 69ea 4b74 93bf c6d9 9c4c 2a47 85bf
00000640: 7f77 496a 0886 9abf 070a ad8e a249 b63f
00000650: 3869 2063 f934 b6bf 6032 e305 e57e b4bf
00000660: 5134 20d6 04f9 bcbf 8a49 900a d416 b63f
00000670: 0e41 9b0b 3b0e c5bf 7f06 b281 de63 96bf
00000680: 01a7 a1f4 2999 bbbf afa4 1fb7 2291 943f
00000690: 3794 fa56 a878 b33f f84f c37b 104b bebf
000006a0: efbd 9aaf f9e1 b33f 2d65 9956 e3e1 c0bf
000006b0: 742e a50e 2ac6 a43f 9815 96d5 7d3f b43f
000006c0: 0d6f 1a2b 1eac 9f3f 275d edd7 9d95 ae3f
000006d0: 0e8a a796 c2cc b33f 12c5 6e89 7ff3 b0bf
000006e0: 3a15 bd1f d44f c13f 3459 5842 b738 9c3f
000006f0: d360 51cc 6f3c a33f 9c0a 961d 5454 7e3f
00000700: 9847 f99d ea97 c63f c735 0112 1866 b53f
00000710: e4ac 05f7 6ae4 90bf 210c 0f52 9d8f c7bf
00000720: 6066 226b f0ae a3bf f6c8 263e 46dc 95bf
00000730: ddd7 c3b2 2192 a03f cc5d 2cfe b5bd 9f3f
00000740: e9dc ff4c 85a1 b8bf 557f 6218 8b12 c6bf
00000750: fca5 ee5d e034 c13f f18f c544 6b1f 823f
00000760: 6d4d 137b 58b7 b7bf 3040 af65 693b a43f
00000770: 6cdf ae68 a90b c33f 2233 065a f819 983f
00000780: f308 576c 7f62 bd3f 962e a09d e35a adbf
00000790: ae3b 707a 5497 b7bf f703 f6d3 9a09 c03f
000007a0: 192f b341 1c5c c2bf 289f 0a14 c214 c53f
000007b0: ba73 618b 08d9 b4bf c754 5b38 375e 83bf
000007c0: 9a14 5b71 5c8b babf f003 e5a3 05eb 89bf
000007d0: 1b5a de60 3ad8 b53f 15d6 b3ff c572 b0bf
000007e0: 347b 78ca ccac b3bf 8de1 f6e2 46cd a23f
000007f0: d954 f642 c854 b0bf 5a3b 9889 8113 a63f
-0.10219653096208353 -0.16609084975331093 -0.16418168438899322 -0.14296532392324823 -0.011626278631692891 0.043285252899216586 0.05532836369465855 0.01664891755703821
0.11598620495866306 0.006520519266918251 -0.12494750541461885 0.025841994626671538 0.13072123080978965 0.0056343632216388955 0.10903704126516994 0.05412912194393163
0.028307003796261703 -0.09017631039644808 -0.09047226607889035 0.1088951181918726 -0.03641972102036083 0.1249689132617131 0.053782911900772 -0.04905526813009283
-0.05023151919064722 0.11982567651232424 -0.14115164860763693 0.13644217442448084 -0.13360743893024027 0.056832173011235214 0.11227525794689235 -0.06049203488427649
0.10933994461519723 -0.17687397008697966 0.06268350946883881 -0.1709316866085589 -0.0011721559162767522 -0.06598424081613713 0.09231806410265135 0.09495212270413535
0.0740037131265206 0.001055592430430138 0.0325092110405145 0.039270116690575986 0.05201070066796151 0.04759869076670609 0.03454868366746432 -0.11930333855438464
-0.12175790231493856 0.04906898981353311 -0.13291456249211425 -0.033134629839192735 0.06676032381328835 -0.03338216872080046 -0.021659950931611067 0.1614569120029215
0.03570691654572818 0.09644493924243969 0.07325576581840036 -0.08009849550261738 -0.10665094160500341 -0.07877764743875634 -0.04370410581847863 0.03522255094165344
-0.11587199645987534 -0.11664842170820622 0.08155766817183559 -0.028900354896483738 0.06494050962478845 -0.046503777367216774 -0.1419073336998253 0.09976493161655145
-0.07936938327516341 0.037432232687016856 -0.026156198183942877 0.16081611773371418 0.03224480388762524 0.13210293044161708 0.004310303057609444 -0.11908646226696977
-0.050718708968056456 0.08052095385144126 -0.03067841171355102 -0.14662362547884072 0.06965562681946721 0.049414307137538145 0.11313061926068174 0.13654823094521437
-0.029686462890917795 -0.024285402404852698 0.0645318451181274 -0.06075897023810821 0.07746402464025239 -0.04581250403720217 -0.1062786620148806 0.09387771716269704
0.059014815836033525 0.14463763010137795 -0.14824785401204105 0.019244476143754876 0.09668020021186567 0.11379722696989039 -0.009618452831634426 -0.0215294934590156
0.10649310998516352 0.04965213589576646 0.09943984088005065 0.09991455131002229 0.042839620471869934 0.10757149949825867 0.07084287801399905 0.022494155803116315
0.08146893956113507 -0.131654245521003 0.15279895994405826 -0.07914577699888271 -0.004497697320132759 0.04932338940963317 -0.01854934856182275 0.09161226988635578
-0.03476021802498147 -0.03931164784337654 -0.11827173536435791 -0.07759755204041197 -0.0959004083693155 -0.02213737448988938 0.009985896204364561 0.014331845751462107
-0.10165136911595724 -0.11798237473548319 0.026824878143954105 -0.1443839091683422 0.10620424974114448 -0.05859921493691279 -0.12235924253653173 0.10744416907807144
-0.07734602612623237 0.06403426859002626 -0.05801631945790443 0.04447963423006626 -0.02782683219865087 -0.15342468101946657 0.09843668751909032 -0.12748231079116318
0.02773887224530278 0.08919684712846625 -0.10066965519905795 0.07734279808447575 0.01266364631749535 -0.043377755630675335 0.05729035115854097 0.05827076245265022
0.12729066990270554 0.08494203809629845 0.024091683141177503 -0.1648257048741045 -0.1278888688089906 -0.08414212246093847 0.09308207703093825 0.08403148177519613
-0.023139916644770272 -0.023602781732454954 0.03128869197340178 0.004950771520874034 -0.08736689605647398 0.09708801767213313 -0.03936548898841141 0.12303019273953986
-0.024693531157073338 0.10854485822868519 0.12080236526976462 -0.10768109579200792 -0.011960325686100243 0.06675057540845285 -0.05131768943019682 -0.02607962224755462
0.14147057926624393 -0.033049961986790104 0.05106700570943888 -0.1242545472390891 0.11826302139290458 0.11420646526547991 -0.1511221944846264 0.13766281145489995
0.035825701773761945 -0.08126925152046462 -0.15623334354100668 0.013023057822414398 -0.05477898282982804 0.09300996390756698 -0.07840150006584072 0.014482413467681898
-0.06611193508059479 -0.030786416998139627 0.018260166585953846 -0.09458230038220716 -0.0929322261224058 0.10263940556261832 -0.018998323614543483 -0.01038964315703773
-0.02590191982959977 0.08706108077334572 -0.08674582166751044 -0.08006125825631605 -0.11317472675018904 0.08628583200360232 -0.16449678484651326 -0.02186534563634845
-0.1078058454746973 0.020084898402193015 0.07605983851915786 -0.11833289166980865 0.07766685998171118 -0.131893555912748 0.04057437351965812 0.07909380402096244
0.030930014973463083 0.059735233887005905 0.07734314134680906 -0.0662154875306167 0.1352486758206995 0.027560103821167206 0.03757047051539222 0.007404640747497606
0.17651112283288906 0.08358908118790175 -0.01649634487823172 -0.18407026774193105 -0.03844405467789325 -0.021348092597414735 0.03236489588918776 0.030997127188212834
-0.09621461038465252 -0.17244089785253416 0.13442616068395796 0.00884898952126176 -0.09264138226290237 0.03951577535883677 0.14879338847617463 0.02353656815971584
0.11478420634287882 -0.05733405398504236 -0.09215286244601259 0.125293115135747 -0.14343598564152485 0.16469598749721936 -0.0814366665158123 -0.009457045943614862
-0.10368898169970678 -0.012655300201574321 0.0853306280608667 -0.06425130360352001 -0.07685546820765127 0.03672238846360463 -0.0637936748010647 0.04311756901380788

bias f8 [15]
00000000: dbcd 0cc0 2d9a c2bf 340d 7ca0 5803 b5bf
00000010: 8a1b e723 9e8a a3bf f4fa 60a1 3e01 a63f
00000020: 7b5e 9d9f 3893 c2bf 1439 629c f76d 843f
00000030: 5932 ae9f c57e bbbf ee52 35bf 220c c3bf
00000040: 7106 2e41 afc6 c23f 5b07 2140 89ac bcbf
00000050: 8f44 99ff 2dee b8bf f3ef 63bc 3bf6 8cbf
00000060: ceca bae3 024b 923f 9da4 7ec0 5f53 aa3f
00000070: 14d0 881d 121a b13f
-0.1453301608795375 -0.08208230894165497 -0.03816694439188158 0.04297824592548763 -0.1451178340309872 0.009975370845748212 -0.10740313671539904 -0.1488078530916463
0.14668837244612434 -0.11200769248628488 -0.09738433351710028 -0.014141527830808775 0.01786427035285492 0.05141734337605295 0.06680405827575014

weight f8 [15]
00000000: c699 a41b 4322 f03f bbad 4b35 531f ef3f
00000010: 0fc7 9216 7faf f03f 4fe7 f4e3 9929 ef3f
00000020: 8f20 72e6 196a f03f 05c1 d4c3 64f1 ef3f
00000030: 0076 a44f 09b8 f03f c32f 5c98 c0a3 ef3f
00000040: 6a54 2fc1 d662 f03f 4c87 8780 b994 f03f
00000050: 72a4 3f88 fc25 ee3f 2929 e7a5 8e6d f03f
00000060: aff5 dc04 14b2 ed3f a160 84f8 11bd ef3f
00000070: 79c2 0b98 20c0 ef3f
1.0083647804072924 0.9725738564424583 1.042845810105465 0.9738282635000618 1.0259036065854479 0.9982169937921134 1.0449307547600029 0.9887392974646833
1.024130587223477 1.0363097210578927 0.9421370183091666 1.026747367914661 0.9279880614264381 0.9918298581933592 0.992203041996688

bias f8 [15]
00000000: 0417 63f3 92af b33f aef4 5951 55a8 853f
00000010: 8930 1dff 0482 c03f 4a66 ec80 1132 c13f
00000020: d26e c7f4 9683 b4bf 76de 8620 e717 bd3f
00000030: 1fb8 5f38 ea94 a5bf b6c0 af5f 65f8 ad3f
00000040: 3d38 3142 fd56 c33f 568f 8952 df40 a33f
00000050: 9793 d80f 6cfa 9e3f bc2e ddf6 c3ef c1bf
00000060: 8a08 6784 9034 97bf 9fa6 3219 1020 983f
00000070: 0afe b7f0 04f4 7bbf
0.07689779703204286 0.010574976487300294 0.12896788079013202 0.13434046549882545 -0.08013289905596402 0.11364597839462384 -0.042151755696849806 0.05853573601768984
0.1510922024921814 0.03760431177650385 0.0302521595641739 -0.1401295619383428 -0.022661455231862727 0.023559810197787297 -0.006824511812282727

running_mean f8 [15]
00000000: c260 18d7 5779 0d40 521f 8bee d4ae 09c0
00000010: 048f 78cd 692a 1040 5a1a 4650 9af3 06c0
00000020: 41d2 0e3b 007b 1540 1371 87d5 dc98 e93f
00000030: 1735 6ebc 4a37 07c0 0f8a a032 359e 0040
00000040: df97 2950 dc30 1040 0f87 2465 80aa 0a40
00000050: 03a9 5974 1fcb 11c0 7464 298a 2b51 14c0
00000060: 12ed 90ce be6e 1440 fc0a 372c e097 0d40
00000070: 5f69 21ac 78a8 f8bf
3.684249573165375 -3.2103670726973315 4.041419229968373 -2.868946673526165 5.370118067531224 0.7999099894036895 -2.9019980164654373 2.0772499041788772
4.047715427912379 3.3332527066967326 -4.4483621768688435 -5.079267653252021 5.108149745555481 3.6991580442712557 -1.541130707154103

running_var f8 [15]
00000000: 10cb 6d48 c4e6 1340 eac1 c83a dc33 0640
00000010: b324 745b 17c7 1440 e283 b8c3 62fa 0140
00000020: 928e 8589 00cf 1040 0ad6 b10a d6f3 1340
00000030: 5653 c9be 2aa3 fa3f 312b 6151 ce7d fe3f
00000040: 487d e465 371b ff3f 80c6 45b4 3c0e fc3f
00000050: c3ed b9bb b2da fe3f 3e53 7faa b772 1940
00000060: c4ff 7f08 ae65 0640 10ad 3a49 2a47 f93f
00000070: f852 885a 0761 0540
4.975358134938475 2.775322398425705 5.194425038303211 2.24725869089933 4.202150486733119 4.9881211920778785 1.6648356869311178 1.9057143381966848
1.9441446285416806 1.7534758607766037 1.9283931096132256 6.362028755208312 2.799648348242018 1.5798743114963294 2.672377307210237

bias f8 [9]
00000000: e5c6 71fc 6ec2 c1bd ba06 4e45 6d99 ab3d
00000010: ecc6 ca22 0276 0c3e 020a 4b2d 971b 113e
00000020: 1ef7 19b3 38c2 e4bd a617 39f2 c0e0 d7bd
00000030: b501 8a00 e194 dabd 37bd 9a54 4d4c dcbd
00000040: f533 a084 f7c3 dd3d
-3.2304353251053025e-11 1.2550719288308396e-11 8.283232481727829e-10 9.9580359684937e-10 -1.5103925883496728e-10 -8.686745468409532e-11 -9.670314560815766e-11 -1.0294772426123375e-10
1.0828624208811272e-10

weight f8 [9, 15]
00000000: 0279 1a34 8d50 d9bf eca0 4e93 5806 dbbf
00000010: 259f 3ad2 0095 6d3f effe 308a 5bc0 c5bf
00000020: c250 3e71 ebc1 a8bf d0c2 c341 a494 de3f
00000030: 8699 7e0b ea38 e03f fc52 50f3 3ce1 d0bf
00000040: 5276 e02b b235 af3f 066b 545f 8ec8 bfbf
00000050: 411c 7967 d0f8 d03f 21cf 64fa 7698 b33f
00000060: 4fac 677c ce59 d3bf cb34 3528 1660 da3f
00000070: 30d3 e342 d664 dbbf 608c 7bae 7b07 c1bf
00000080: 50e8 c591 ac8d d43f bdec 3add c3b9 85bf
00000090: db6e e9ff ae37 893f b3be 7460 32ed 90bf
000000a0: bf37 4e6d c058 d2bf 5147 0ee2 95c0 c8bf
000000b0: 16af ca94 b14c d1bf 5f8d a628 f100 c13f
000000c0: 69bc bb01 763d dc3f 4c09 b7f2 235d d6bf
000000d0: 6d15 e72a 6a32 ddbf b936 3d40 579b afbf
000000e0: 3fc3 cba6 f99c dc3f e292 5b0e 6013 a0bf
000000f0: 620d 6b89 d471 dabf 9fae 512e 9a8c db3f
00000100: f383 f9a5 f1d0 d4bf a68b bcec 1991 c7bf
00000110: 3035 725b acc6 da3f 2b23 212e f5e8 dcbf
00000120: 41d6 8eac a22a d3bf 4076 6704 c4c6 cdbf
00000130: 3298 3a32 5d6e b6bf 34ed f974 d5bf d03f
00000140: 408f 5bce af0c c1bf 765b b515 fd19 c13f
00000150: d8f2 c298 46b9 b0bf 69e2 3b2c a9e8 b6bf
00000160: d7a9 1579 ea5b d53f 4ac1 0a08 a9a8 d4bf
00000170: addc d7a9 c4b8 c33f 1b17 bf45 6de2 dcbf
00000180: 1e79 54c0 7948 de3f bdef e7e1 6de1 c3bf
00000190: 3aaa 0a3c 5381 c4bf 2ff5 3220 bb5f d63f
000001a0: 31b6 84cd 741c 753f f5ec 87ed 1255 c3bf
000001b0: 15ba 5f07 55d3 a93f b471 aa40 c888 c63f
000001c0: 887c ac1a a117 bebf f087 82e8 9155 c0bf
000001d0: 2a7a a2c9 9b00 d33f 4381 8bb0 51a0 d2bf
000001e0: c737 5bb7 8ae4 b23f b5e5 5dea f39f d8bf
000001f0: d996 eabb 0119 c0bf c15b e7e9 c323 afbf
00000200: 54b0 1499 1d01 c5bf 72ff fb10 de7b b4bf
00000210: 9128 e568 ebfb e13f cde1 78ca 4331 ce3f
00000220: 6df3 0a38 e858 d1bf 7b23 3357 a220 c1bf
00000230: 31c1 9b78 d133 9dbf 5cd9 d2c3 bc55 db3f
00000240: 4ffc 193c 9c2d dd3f 939b f897 42ec c8bf
00000250: e15c cc55 e33f cbbf ffb3 5b1d cce0 d9bf
00000260: 1029 9408 3c71 d03f 4755 a7f6 a043 b2bf
00000270: 7036 63e8 5180 d13f 0f7b 8b8f d72a cabf
00000280: 4fa7 928e 9467 c43f 3ad6 c155 2de5 da3f
00000290: fc53 e1c3 3a98 debf b05a 98c2 841a bb3f
000002a0: bc0d 12ca 7e7c cebf fa60 414f dedd ddbf
000002b0: 7b09 80ab f13b d5bf 8847 9ed2 96d6 8abf
000002c0: 52fa 8e23 9ee8 dcbf 4af3 c5d3 ef34 cc3f
000002d0: 8a87 0850 b73a a23f b427 39e2 7bd7 dc3f
000002e0: 923b 04ea 703c e1bf a5ca 1136 45fc cfbf
000002f0: d062 80a0 747f ca3f 74ec 3f11 508d c13f
00000300: 2cca c494 37a9 da3f dba6 b953 4794 d2bf
00000310: d501 f47a 2de0 b8bf 8c9b 59ec c042 c4bf
00000320: 62ee b0e2 3b9c a2bf 1b0a 45e9 5b39 d13f
00000330: b5cd 8193 e592 c73f 50e0 49d4 1277 c63f
00000340: ed41 d760 4653 c8bf b1a9 afe3 1cdd c93f
00000350: 80bd 3132 bc44 da3f 4d4b 3d72 de98 bf3f
00000360: 3453 2e34 5c8e d93f a3f2 60ba 2093 c9bf
00000370: 4980 b8da bb0d b1bf dcfd 3cd8 f1d9 d3bf
00000380: ccc8 9ed2 8f63 c7bf 7748 d94b 6ce0 d6bf
00000390: cfb1 2ea6 a0a9 cebf 70d2 1b6e e4cf dabf
000003a0: 2cac 27c1 37f0 ddbf 4339 83d4 0639 8bbf
000003b0: 3847 c78e 2b6d a43f bce2 3727 07e3 e33f
000003c0: 7e9f e69f 55f2 da3f ebdd 38be 317b dc3f
000003d0: 84d0 4318 605a d23f ef8c d88e 1418 d03f
000003e0: 2313 0c51 55cd c33f 75ae b14e 10e3 ae3f
000003f0: 07f4 7781 f503 dabf a0fa 2429 d3a1 d03f
00000400: ffb5 3ef5 cc05 dcbf 6385 3e84 b856 d9bf
00000410: b630 3394 75f8 c6bf ac15 0740 9947 dbbf
00000420: 7531 b9b2 a043 c03f a57b d8d5 4c75 d23f
00000430: 2c13 89fd 7037 d43f
-0.3955414780447343 -0.4222623289629286 0.0036110893286894923 -0.16993278739572967 -0.048354489873561515 0.4778223650201143 0.5069475388052502 -0.2637474418745993
0.060956542831473684 -0.12415399386774703 0.26518640618127526 0.07654517758492975 -0.30235635899470464 0.41211465765520633 -0.42802959949704 -0.13304086703928686
0.32114710078861197 -0.010608225048932213 0.012313239273843582 -0.016529833924492986 -0.2866669719159027 -0.19337724244956658 -0.27030601053660186 0.13284124836818997
0.44125127953788607 -0.34943484022746385 -0.4562020701381105 -0.06173203143280887 0.447081005942028 -0.0313978211905004 -0.41319764537566617 0.43045668147417787
-0.3252529259535201 -0.18411563929938984 0.4183760540989452 -0.4517186117632714 -0.299477261079435 -0.23262834754034323 -0.0876215217236627 0.26170860694374487
-0.13319966865594246 0.13360560951215533 -0.06532708386925934 -0.08948762254647992 0.3337351019351024 -0.32279420647957535 0.15407617848516023 -0.451319997894062
0.473173559019317 -0.15531705408636567 -0.16019668990823438 0.3495929541057476 0.005154091130220404 -0.15103375051680926 0.0504404613019355 0.17604926259526865
-0.11754805470671859 -0.12761138775846304 0.29691214266668686 -0.29103510132519633 0.07379977203819897 -0.3847627438295505 -0.12576314616779063 -0.06081974249143896
-0.1640965459313316 -0.08001506724030863 0.5620019005521205 0.23587844263398808 -0.2710514590542548 -0.13380841501045979 -0.028517983423570207 0.42710799334908756
0.4559088313034793 -0.19471008701767953 -0.21288720788354623 -0.40434553973210535 0.2569112857605811 -0.07134443303887848 0.27345702833267804 -0.20443243512178141
0.15941101991239257 0.42023785948490266 -0.47804135445522866 0.1058733916364456 -0.23817429415440283 -0.4666667722681407 -0.33178369281826975 -0.013104608824310096
-0.4516978595019384 0.22036550369730384 0.03560421802491394 0.45065209476581036 -0.5386280604014806 -0.24988618030655121 0.2070146354388016 0.13712502329130738
0.4165781929797585 -0.29030020881928714 -0.09717067958627663 -0.15828715839890284 -0.036348220274217594 0.2691259172462723 0.18417043402187763 0.17550883641865989
-0.1900413487296783 0.20206032865037352 0.41044526006495374 0.12342634476708021 0.39931397529408064 -0.19980248547098708 -0.0666158112512686 -0.3101772891713759
-0.18272588524047817 -0.35744769484620725 -0.23955162157416374 -0.4189387393264843 -0.46778673041143537 -0.013292363510484356 0.03989540212536585 0.6214633718473901
0.42104092231101464 0.4450191838872956 0.2867660748445433 0.25146974515719384 0.15470377404576494 0.060326108556947235 -0.4064916385976293 0.2598770047951948
-0.4378540415735585 -0.39591801561808476 -0.17945737587286253 -0.42624503376677114 0.12706383444527672 0.28840943225253063 0.3158838725978963

weight f8 [9]
00000000: f49a c307 a3fc f13f 2365 daf9 f736 f03f
00000010: eb0f a913 0d95 f13f 4b0a d1c5 4ba6 f33f
00000020: f7bd 9a27 de2e f33f 088d 5a52 2ebf f03f
00000030: 22f5 a045 f21f f33f 84a9 e535 2eb8 f03f
00000040: e6f0 8163 3191 f23f
1.1241789153370378 1.0134200820815031 1.0988894241318075 1.2280996062478546 1.198942331986357 1.0466750351850482 1.1952994079468415 1.044965944800965
1.160447491361134

bias f8 [9]
00000000: a55a 8744 eea2 a0bf cd00 d7d8 d82b 663f
00000010: 6762 db15 f7bb a6bf a04a 6585 5c99 65bf
00000020: d52a c17d 8f8a b73f bb4f 4fd2 ac46 afbf
00000030: 5c3e 8a4b 498c 8cbf 031d 2046 0757 9c3f
00000040: e468 a2f4 c05d 8f3f
-0.032493062844584565 0.0027064547818725694 -0.04440281049545974 -0.0026366049816400478 0.09195801563434298 -0.06108608309992244 -0.013939449899481086 0.02767573705207572
0.015315539804124652

running_mean f8 [9]
00000000: aded 2617 779e 9fbf 2fd3 364f 251b a73f
00000010: 08f7 14b4 5a41 c5bf 6402 d231 6b84 a1bf
00000020: c3c0 930c 7de3 bebf 4dce 9405 a151 803f
00000030: ecd7 0f91 ecc8 c5bf 5a63 6f21 079c b23f
00000040: 93c8 d46e 6552 b83f
-0.030877934253778317 0.04512898056001401 -0.16605695527135134 -0.03421339972647244 -0.1206586986261327 0.007968194945170337 -0.1701942165670397 0.07269329611098155
0.09500726657714358

running_var f8 [9]
00000000: adf9 1b36 b21f e43f 6656 ef02 1e4e fe3f
00000010: a095 694b 8439 ea3f 8a78 4a95 0576 0940
00000020: 01e8 29bb b11b d83f cacd 8ee8 4333 0040
00000030: 1cb5 c788 d351 0240 bac8 a4d7 f8d0 e13f
00000040: 9321 e32a 6ef7 f93f
0.6288691574880453 1.8940715899128917 0.8195210907839972 3.18262783654706 0.37669032361702653 2.0250318687992364 2.2899542509027366 0.5567592822829035
1.6229077983171905
