code/models/model1.pt (torch, 600775 bytes, 50 tensors)

att_src f8 [1, 3, 15]
-0.40081655481781814 0.8793841998080564 0.33717524917890135 0.5939540725407181 0.16024531345845452 0.2799146362798448 0.14997632382061993 0.0776453295575466
-0.2500120894778542 0.6722340507102612 -0.9681212078992381 0.5990154798797708 0.623185231053385 -0.5688979764830586 0.6433175017816412 -0.25657667052523797
-0.32524493467215215 -0.48788709730004 0.32846405356365604 0.7563940870620384 0.7043516003205732 1.126896692907995 0.41803169155389186 -0.6323342796380242
0.4616562696696009 0.8319220870860417 0.022228278841953726 0.06832923323203322 -0.26325354822880914 -0.2509636659729776 -0.09770736535809746 -0.27031261571436205
-0.09504748651419537 -0.10065366960975539 -0.0005800967714790093 0.39613188506750113 0.05519221026115743 -0.07782417070983194 0.17609731105057663 -0.17062698411840738
0.06800298582968703 -0.036826824134205 0.03769034624464081 0.3630392234800882 -0.5265746659879967
00000000: afd3 a87a faa6 d9bf 716e 5955 ea23 ec3f
00000010: 399e 0f7f 4794 d53f bd6d 9cf8 ab01 e33f
00000020: 2117 521e eb82 c43f 4498 1f14 1fea d13f
00000030: 66ef fd96 6c32 c33f a405 2377 90e0 b33f
00000040: 5d5e fab4 3200 d0bf 97dc e1fb f082 e53f
00000050: 46b8 cf53 d9fa eebf 1d34 fc82 222b e33f
00000060: 0a2f 5727 22f1 e33f 882b 7887 6934 e2bf
00000070: 1b17 e395 0e96 e43f 41a3 348e c06b d0bf
00000080: b7d1 6621 d0d0 d4bf 94d1 c2cd 8a39 dfbf
00000090: 70eb fd17 8e05 d53f 2537 5a5f 6134 e83f
000000a0: 5463 085e 0c8a e63f 932a a0d3 c407 f23f
000000b0: f697 fafe 07c1 da3f caeb 6519 153c e4bf
000000c0: cf5a 0ebd c68b dd3f fd58 9b11 1b9f ea3f
000000d0: 92b3 b08a 02c3 963f 88a3 174e 067e b13f
000000e0: 67b7 0c69 25d9 d0bf 2ea5 75e8 c90f d0bf
000000f0: 0a96 ca92 5903 b9bf 241f 0c49 cd4c d1bf
00000100: 883d 2536 0855 b8bf f63f 325b 70c4 b9bf
00000110: 8dfd bc54 3402 43bf c922 d18c 395a d93f
00000120: d599 2144 2742 ac3f 107c 09ec 48ec b3bf
00000130: 1a19 f04f 5b8a c63f 1845 4de2 1ad7 c5bf
00000140: 3a3a 2bc8 a468 b13f 8e3d 8b2a f7da a2bf
00000150: aac5 fd28 264c a33f 1ec8 00de 083c d73f
00000160: 1b42 2a1d b3d9 e0bf

att_dst f8 [1, 3, 15]
1.347997672483918 0.3899634296435931 0.6448969627829333 0.8341676367344929 -1.1103793861628595 0.7511986734335441 0.1921644108197806 -0.5963075917525784
-0.3178487421108381 -0.3155763004174414 -0.4120759433133038 0.6094548373530625 -0.8133557553842211 -0.7781914164205838 0.3661956695929773 -0.009252665867926191
-0.7982362026692897 0.13038931262622921 -0.702642567408108 -0.17600870974638688 1.0318556451579455 0.5193241534948759 -0.07110169059890341 -0.9137080044055708
0.874043857389865 0.7664494304435496 -1.0261201090745404 -0.012508023970167374 -0.565050416833892 -0.17799696464988968 0.6654223614757916 1.6678169608291065
-0.4738126039271737 -1.8111045205361451 -1.5987510208402755 -1.5790931518088918 0.18007790959344913 2.1303757951913296 -1.1556318227350935 -1.9837036295841546
-0.22284722058331982 -1.2697467880663995 0.942615340102911 0.07677039923374597 -0.27399994113914095
00000000: d570 e601 6691 f53f 7a22 3d2c 29f5 d83f
00000010: 5e28 8ef4 fea2 e43f 0b00 e553 80b1 ea3f
00000020: 768d db2c 1dc4 f1bf d042 e6cc d109 e83f
00000030: 5789 f6e9 d798 c83f 0ce2 9da8 f314 e3bf
00000040: dd35 1c40 a257 d4bf 93e0 6bf0 6632 d4bf
00000050: 73ef ffc6 735f dabf bd40 5a6e a780 e33f
00000060: 756f 2ca6 0207 eabf 07bd 71af f1e6 e8bf
00000070: 97ac 35f6 bf6f d73f 0db0 6dca 0ff3 82bf
00000080: 9a54 1ea6 268b e9bf 2821 bdd4 98b0 c03f
00000090: 1873 f943 0c7c e6bf 6e00 1612 7487 c6bf
000000a0: 7a57 a210 7b82 f03f 6b11 e9af 4d9e e03f
000000b0: 9b06 d06b b833 b2bf c07d a091 183d edbf
000000c0: 064b d8d2 2af8 eb3f 365f b9f4 c086 e83f
000000d0: c1e3 63eb fc6a f0bf 8299 1d8f ce9d 89bf
000000e0: 4791 9c9c e414 e2bf 94b1 fac2 9ac8 c6bf
000000f0: 8519 12d6 234b e53f 1d9a 67d6 60af fa3f
00000100: 2030 9319 f252 debf b472 d5bb 48fa fcbf
00000110: 214a 4ff3 7b94 f9bf 43b5 452e f743 f9bf
00000120: dbcb 37fe ca0c c73f 464b 0477 020b 0140
00000130: 56d3 4dcb 777d f2bf bb53 6004 40bd ffbf
00000140: 2f76 34fa 4186 ccbf c123 0f02 e250 f4bf
00000150: bf65 4ea5 e729 ee3f 6982 0292 39a7 b33f
00000160: 341b 930c 3789 d1bf

bias f8 [45]
3.7702293583808994e-10 8.587247516239532e-12 -2.650403688060283e-11 1.15719091076589e-10 -2.81538774004988e-10 1.1291749975958933e-10 1.5175090039551317e-10 -1.5740669445098502e-10
7.522346359229026e-11 -1.7584709750474387e-10 -8.635443406361054e-11 9.793904746748799e-12 2.4095610901920276e-11 3.412103675974432e-11 1.5064423628101422e-10 -1.9542782341621292e-10
-2.0074996082779803e-10 7.255824669941748e-11 -1.227810582404406e-10 -1.102848758421487e-10 7.704107065269899e-12 2.7048464556319227e-12 9.334740796762107e-11 1.1349120832196337e-10
1.5662414012339455e-10 1.0477214134434166e-10 -1.8302225768858757e-10 1.2371904732301218e-10 5.722433932752567e-11 8.58557136010529e-12 -1.308294951288428e-11 -6.358058636111078e-11
-3.5265197181558084e-11 4.821863027292635e-11 5.624608915616459e-11 1.679184846738663e-11 -2.3458434133061884e-10 -7.562364079506717e-11 -5.626663583137569e-11 -1.15183268850143e-10
-1.2862309274021376e-10 1.910178538640661e-12 1.8324473267197467e-10 -2.5963923601808343e-11 6.532174827345332e-11
00000000: 8a2e 755a a8e8 f93d 2197 75ca 30e2 a23d
00000010: 23b3 4121 3924 bdbd 520e 62d2 01cf df3d
00000020: e055 eeea e158 f3bd 0e88 e0d6 dc09 df3d
00000030: f7a1 d198 42db e43d 52d4 0076 41a2 e5bd
00000040: 2e66 4e73 61ad d43d 03ca 78d8 112b e8bd
00000050: f54a 3330 a7bc d7bd cced b06c 7a89 a53d
00000060: 2a7f 9bbf 4f7e ba3d 657d 51e8 1bc2 c23d
00000070: 9f5e 1ba7 52b4 e43d 871c 6e58 01dc eabd
00000080: ce52 c6e5 4297 ebbd 6f47 d32b d5f1 d33d
00000090: 85bd ce74 f9df e0bd cf19 f7b3 9b50 debd
000000a0: 89f0 b2d6 06f1 a03d 6014 9bd2 c5ca 873d
000000b0: 5e43 2e68 bda8 d93d 0c01 a2da 3b32 df3d
000000c0: e9df 93d6 b886 e53d 01c0 5b1b afcc dc3d
000000d0: f3f6 6bf1 8527 e9bd 3358 601c fa00 e13d
000000e0: 5055 2e1b 9c75 cf3d 597e 363b 3fe1 a23d
000000f0: e270 c9ba 0bc5 acbd 243a 2a05 167a d1bd
00000100: 4ffd 8ea1 2263 c3bd 2160 1d3e 2b82 ca3d
00000110: e4c8 e7ed eeeb ce3d 09d0 3333 7c76 b23d
00000120: 459c c3f3 d91e f0bd b9cc ea66 8ac9 d4bd
00000130: dcf5 8833 d3ee cebd d451 834e 4da9 dfbd
00000140: 6ced 37d3 85ad e1bd 7c63 19f5 56cd 803d
00000150: 5391 ced1 592f e93d c4f7 d4dd 318c bcbd
00000160: 4340 3601 9cf4 d13d

weight f8 [45, 5]
0.331126879753392 0.40451077695249255 -0.1140384119878014 -0.050462499522763875 0.3334198036829267 0.32192453690408196 0.1353808414124239 0.15249253723021255
0.4698685170827713 0.18016813998893905 0.17215571626112117 0.4483527947563714 -0.27549722089801026 0.1726805135233235 -0.01887582998800457 0.3477325880626088
0.3300750369189426 0.06910759196219689 0.6559064629503353 0.1537294636928988 -0.5636225120457522 0.15470561050751755 -0.06505421951423637 -0.5129171111691854
-1.0193445617636394 0.22532610746710638 0.38278390428117226 -0.11940503193235663 0.180357828206709 0.356431900791388 0.17197747620381315 0.08911996648864386
0.07314077093686099 0.7065752492959719 0.06405869855981075 -0.21846920019087993 -0.3141572211944424 0.025021190151486867 0.0919100547367878 -0.1900719360641908
-0.22357969757073226 -0.43779147372393395 0.3284936295041468 0.30312917393285144 0.4198556486451668 0.1739545928885364 0.34866988520333925 0.042996711747204264
0.062087462038615204 -0.2881006893355071 -0.3148236821857336 -0.16976786122463336 -0.08896918256145651 -0.7555415380303384 -0.10904103404796725 0.2776770617021048
0.4261779493208688 -0.07162674055524619 0.6076102679187132 0.10382856761528755 0.12364384785413493 0.3512069893915921 0.07655715104120796 -0.11580979044066908
-0.8981611010050109 -0.16419873250628672 -0.6521445926526466 -0.12115030222887259 -0.1310663383619533 0.07204063616093788 0.3016943914623461 0.167060462449833
0.08403304757716884 0.1506198706130704 0.21364012719264758 -0.06051541227774958 0.33326567312508293 -0.37986202418289633 -0.24314882131348325 0.29158528511263765
-0.019475787603816748 -0.04123810579606856 -0.5966498013103722 0.23110676103642677 0.5157849858912695 0.0775801312864417 0.021869769133711067 -0.45505887164401815
0.19568983228092857 -0.40986818634860744 0.1330729324196472 0.041619463069783036 -0.34840971643577806 -0.292336054066387 0.31615763494245824 -0.31835528466811464
-0.45672760404722657 0.09743429626089559 -0.04387376550747143 0.15057556343392592 -0.13376670906422283 -0.24043830816571168 0.4155975401059673 -0.3815150808173008
-0.13523685631205165 -0.18262449472965878 -0.16293530822224628 0.5534240515802851 -0.4651920971863272 0.08556173558774674 -0.114926314468986 0.3859233722668305
0.30008788385633595 0.07281481398140013 -0.36378282871192436 0.34413190623135415 0.4425866333017442 -0.4663295670462526 0.0692967678738528 0.3974459990270288
-0.17133375879471668 -0.03122811955557486 0.44328222175473314 -0.41314983908042036 -0.2897673165146998 -0.1915846269934578 -0.23301369823453943 0.4707784908718909
0.18604307359608144 -0.1306010264015021 0.18457550069524042 0.21518944764221798 -0.5159126930202144 0.3491193089863357 0.39171235600223514 0.14294068718080052
-0.11860285578566195 0.022408477658885127 0.2316921161210918 -0.28406136442237867 0.08234272446989428 0.2446181300353528 -0.4444244064476328 -0.19124216230269475
0.02077366270045189 0.27438177555528787 0.07470293067701597 -0.30023981172410513 -0.1330998969167269 -0.08183294231584573 -0.025722379152877978 0.1001004170192056
0.9702851953836968 -0.029154864784495114 -0.29717799303595094 -0.4090659931123593 1.140908185064629 0.4857612054308543 0.43345098461477044 -0.32503989558071605
0.09187127485693997 -0.061156754506864835 -0.5598380919086032 0.5924794265190055 -0.0758861411223409 0.116265013894887 -1.5484404990710992 -1.2958871015126787
-0.29559335403445824 0.16655603420495196 0.3061859713976482 -0.7887120636648082 -0.4770438274066814 -0.18704275451841398 0.07788164676116302 1.1609858695895803
-1.0254491594958122 -0.4626730046823722 -0.10644779032774812 0.18587383118198048 0.1488191404032713 -0.42780830176574236 1.0325974052629534 0.08339404425608696
0.030608076583272376 -0.3701793872888639 0.9792951567141484 0.2539714224262725 0.0883200862794777 -0.07548303380283536 0.4501422619443825 -0.8155033718199255
0.2642129595567912 -0.23345501646673036 0.11180547935562457 -0.11566144208873139 -1.553134136936102 -0.3329419212419487 -0.2940319593083533 -0.24842769585895746
0.0015936545266586218 -0.6465730094083478 0.7331046008315626 0.024399122357992457 -0.0036039869717363255 0.29632226203090095 -0.7043519010110435 -0.937600102403936
0.06420631099044609 -0.011320487609239909 -0.3335468986677375 0.927754527423336 -0.5368186785513159 0.34212905845048125 -0.044377774607637116 0.45510650145499054
-0.12183113976618443 0.5269808986826185 0.018514584868267438 0.0032934885075892417 -0.41077213352852565 -0.1866870961571094 -0.20128685812812627 -0.22086550354627973
0.13992104669835842
00000000: 8d82 d7cb 2e31 d53f 0dfe 782b 81e3 d93f
00000010: 98b2 f911 9f31 bdbf e7d6 3f82 38d6 a9bf
00000020: d20a 2a04 c056 d53f 4c1c 725f 699a d43f
00000030: 8487 2fcf 2854 c13f 76d7 241e e084 c33f
00000040: e197 9266 5312 de3f 6a4e 84e6 bf0f c73f
00000050: b19a 94d1 3209 c63f cb1f a3eb cfb1 dc3f
00000060: 7955 7918 bfa1 d1bf cd9c 1e23 651a c63f
00000070: 8eef ee81 2f54 93bf bdde 5e2f 4041 d63f
00000080: 12be 320c f31f d53f e308 62ff 08b1 b13f
00000090: 4c6a f38c 2ffd e43f 2a0e 7f35 68ad c33f
000000a0: f1d3 1014 3209 e2bf a999 d1b8 64cd c33f
000000b0: 96cb 47b1 64a7 b0bf 6df9 4025 d169 e0bf
000000c0: a415 423e 3c4f f0bf 45cb 4063 7cd7 cc3f
000000d0: 3ca9 940f 887f d83f 3897 2003 5491 bebf
000000e0: f5d9 dc1e f715 c73f b29b 49bf c7cf d63f
000000f0: dad4 f8a1 5b03 c63f 7945 7ded 90d0 b63f
00000100: 5f94 2d83 5ab9 b23f b574 7cb2 439c e63f
00000110: aab5 569f 2666 b03f c965 007b ccf6 cbbf
00000120: 8545 b5e3 261b d4bf a56a a1a5 279f 993f
00000130: 77a0 44d7 6a87 b73f b33c a4f6 4654 c8bf
00000140: b0d4 8e70 429e ccbf 052a 8787 c604 dcbf
00000150: a589 ea24 0a06 d53f 7053 20e8 7766 d33f
00000160: ec32 fe39 eade da3f 37fe b8e3 2444 c63f
00000170: 4119 837e 9b50 d63f 385e 943d aa03 a63f
00000180: e81d e585 edc9 af3f f3aa a9df 3d70 d2bf
00000190: 159e bf3a 1226 d4bf c792 ef09 f4ba c5bf
000001a0: 130c 7431 afc6 b6bf d783 9372 652d e8bf
000001b0: 6e75 28fb 1cea bbbf d608 b702 76c5 d13f
000001c0: ab01 a7e0 7f46 db3f 1f30 344c 2156 b2bf
000001d0: e896 ad16 8b71 e33f d655 4c4e 8294 ba3f
000001e0: 8696 e28a 1fa7 bf3f 8010 64e1 2c7a d63f
000001f0: 2f36 ffdb 3f99 b33f 48d1 7fde b5a5 bdbf
00000200: 5363 6b59 bcbd ecbf 255f 14cd 7604 c5bf
00000210: 7e9a 3656 5ede e4bf d938 f9c9 b403 bfbf
00000220: e27e 6f22 c8c6 c0bf d554 4b50 4171 b23f
00000230: dae9 2dfe f54e d33f 159d 56bb 3c62 c53f
00000240: 0c8d 2097 3083 b53f 0198 340d 8347 c33f
00000250: 08ee b347 8f58 cb3f 9e16 4649 e0fb aebf
00000260: f4e7 bc8b 3954 d53f d9e7 b6ce a84f d8bf
00000270: 141a cd25 801f cfbf 6b6e e353 55a9 d23f
00000280: 02f8 49fb 75f1 93bf ef77 7c37 291d a5bf
00000290: d15f f952 c117 e3bf af99 4406 e894 cd3f
000002a0: 6477 c583 4f81 e03f d0d4 b19e 4adc b33f
000002b0: fc2a cd5c 0765 963f 5ace dd3e af1f ddbf
000002c0: 4635 e74a 5d0c c93f 4670 02c6 473b dabf
000002d0: 73d3 5caa 8808 c13f 600a 8671 254f a53f
000002e0: b9d1 6c44 584c d6bf 5709 ea47 a2b5 d2bf
000002f0: 2159 9d3b ed3b d43f f521 0ad8 ee5f d4bf
00000300: b40c a46a 063b ddbf be06 f33b 74f1 b83f
00000310: 9b90 0348 9f76 a6bf 1a43 4360 0f46 c33f
00000320: 9cb8 5c7c 441f c1bf 9d7e 23b7 aec6 cebf
00000330: 4467 c36c 2699 da3f 72a1 c23a be6a d8bf
00000340: 897c 89f9 704f c1bf 03fd 274c 3d60 c7bf
00000350: 2ad0 166e 10db c4bf b46d 4b5b a6b5 e13f
00000360: ab77 f112 b5c5 ddbf 526c 23b8 5fe7 b53f
00000370: 5d17 189a cf6b bdbf fc79 a9f1 f7b2 d83f
00000380: 0daf c5cf a334 d33f 5ae5 b6dc fda3 b23f
00000390: 5e80 0ac6 3748 d7bf 0486 b1d4 4106 d63f
000003a0: 0660 ebe2 5653 dc3f 90c6 e7f7 57d8 ddbf
000003b0: 7498 bcd7 6ebd b13f 16d1 ef57 c16f d93f
000003c0: 04ae 5cbd 43ee c5bf 0fbc d3a0 43fa 9fbf
000003d0: 576d 5565 bc5e dc3f 26ad cc05 0c71 dabf
000003e0: 1a57 f836 8c8b d2bf a037 ad55 d885 c8bf
000003f0: 68fb b792 64d3 cdbf d11e 7d1b 3c21 de3f
00000400: f109 5f6a 42d0 c73f 49f7 9bd0 88b7 c0bf
00000410: 3c7f 9085 2ba0 c73f 1ea8 08ec 538b cb3f
00000420: 959e 0356 5b82 e0bf 4ae6 9f83 f857 d63f
00000430: 55ff 9db3 d011 d93f 7fca 5a64 e14b c23f
00000440: 7dc6 cfba c15c bebf c9cf ca7a 3ff2 963f
00000450: 7695 bd56 16a8 cd3f 8d14 90b7 0f2e d2bf
00000460: 7567 a9ac 6914 b53f 9358 419a a54f cf3f
00000470: a427 cf10 7371 dcbf 406b 5a88 9f7a c8bf
00000480: e092 aae7 b045 953f 4637 2894 788f d13f
00000490: d252 2c34 bb1f b33f 8ffb 130b 2137 d3bf
000004a0: 36dd 2ddc 6a09 c1bf 2265 fbf2 00f3 b4bf
000004b0: f89b f2a4 f756 9abf dad7 6951 2ea0 b93f
000004c0: 0ce9 be89 930c ef3f 5928 13db c5da 9dbf
000004d0: 728a 4bd8 f604 d3bf adb1 9421 232e dabf
000004e0: f475 e9f0 2841 f23f 7a6d bf2a b616 df3f
000004f0: 5bb9 d532 a9bd db3f 0786 5a22 74cd d4bf
00000500: 74cf f338 e084 b73f 2cae 1229 f04f afbf
00000510: 06ae f992 31ea e1bf 7d76 0e6a 97f5 e23f
00000520: 7610 572e 466d b3bf 6af7 5840 8bc3 bd3f
00000530: 23ff 748b 69c6 f8bf 0ce2 041d f4bb f4bf
00000540: 758c 1f63 00eb d2bf 0a4d ee47 b551 c53f
00000550: a766 690b 8d98 d33f 2ad5 ec14 213d e9bf
00000560: 761a 5ed5 e287 debf c31f ce58 04f1 c7bf
00000570: e63d cc35 0df0 b33f fd15 50eb 6593 f23f
00000580: 58ec bb60 3d68 f0bf fd94 f63b 6f9c ddbf
00000590: b26b 3092 2940 bbbf 2eee 0db5 b6ca c73f
000005a0: 5183 866e 810c c33f 68a2 4212 3661 dbbf
000005b0: 1a9f 58db 8485 f03f 7ed5 c2e4 4f59 b53f
000005c0: 45aa ac3f b957 9f3f 78c6 83e2 04b1 d7bf
000005d0: a4fd e6cb 6256 ef3f cf1f 5c5a 1141 d03f
000005e0: 1d77 262a 259c b63f be06 9629 db52 b3bf
000005f0: 454f 667d 21cf dc3f 5fd1 f786 9a18 eabf
00000600: 5373 1e79 dde8 d03f 5fe7 679e dae1 cdbf
00000610: 2894 58ad 489f bc3f 8ee6 2dff fc9b bdbf
00000620: 6211 472e a3d9 f8bf a5e6 cca1 eb4e d5bf
00000630: d352 4d6c 6bd1 d2bf fe42 918e 7acc cfbf
00000640: 4b04 ae84 451c 5a3f 2f53 3ce1 b9b0 e4bf
00000650: 5bcc a3c7 9775 e73f 7e91 5062 15fc 983f
00000660: addf b8c5 1b86 6dbf 30f7 1fa6 f1f6 d23f
00000670: b8f8 76ff 0c8a e6bf 12a3 11ee d100 eebf
00000680: f398 e625 d36f b03f 96a0 7320 322f 87bf
00000690: 3d73 5d17 d558 d5bf 25f9 3f43 2ab0 ed3f
000006a0: 9950 885d 9e2d e1bf f896 4347 71e5 d53f
000006b0: ccd6 3705 afb8 a6bf e68d fc04 7720 dd3f
000006c0: 701f ee58 5330 bfbf 54ac ae0b 07dd e03f
000006d0: 2a6c 08c2 7cf5 923f d74f c12d f2fa 6a3f
000006e0: 0f3e e733 174a dabf 2f3d 4ade 5ce5 c7bf
000006f0: bb2f 638c c4c3 c9bf 33de 4521 5245 ccbf
00000700: 86b7 cbcf eee8 c13f

weight f8 [15, 45]
-0.25349130531852676 -0.2735649535746678 -0.07445793191526372 -0.3563337639488591 0.14074354865907623 -0.24237403922094297 -0.10371268904019906 0.3206720676639252
-0.09269212259130304 0.19109664065005558 0.2807678370000029 -0.2130953415803362 0.0628403009315496 -0.09783090935831694 -0.27875966875611624 0.34254563514846303
0.4179656225807897 -0.5373930978731221 0.2887244432024952 0.2794989580191348 -0.1009857508669536 0.17864700145627094 -0.05221042026961348 0.1536594871175808
0.0046737613793524715 0.02394038329662699 0.33772297987357963 -0.4357862098100526 0.08267048513264284 -0.09463521071442664 0.114738847980983 -0.15635973807974965
-0.3066082560928208 -0.22454069465722815 0.15628155729686766 0.43658670738218747 0.20517074392459955 -0.15071430703361563 0.3173780959492342 -0.12790515817271586
0.1434743324039346 -0.04019983774774343 -0.22933142997667935 0.36490997129612474 0.05144177690959114 0.21145354573294292 0.2707039806265554 -0.10828430645239764
0.15118968989597054 -0.31088588626017094 0.10843361843574204 -0.10996312491253593 -0.0757111745513446 0.11713204629198161 -0.3537090475275637 -0.0562735602638192
0.013246080668053778 -0.35614329310896226 0.25605433599998967 0.1895937616950544 -0.4033109449502989 -0.23069753627727027 0.2038876194327668 -0.16575670159529063
-0.3775575675450048 0.15754360672404205 -0.21087516081026883 0.181757651556023 -0.18936644607851832 0.043543732317380374 0.27063697724279484 -0.357832811626364
0.11992706197974196 -0.22577008586088296 0.22683263093930875 -0.2715361307597802 -0.18839279118847793 -0.10495921784071138 0.027114454268407383 0.11280307137697158
-0.08909201104639454 -0.13513301327473118 0.08932132712225271 -0.092666309842104 -0.32457520991787536 -0.1440788043288698 -0.11481816210182041 0.07597020874322384
-0.03795773558635757 0.30226064019320087 -0.04077871263856116 -0.1664017687905226 0.2116623811947595 -0.04725758151178858 0.5558826105763662 -0.2358771266083818
-0.1883131741849813 0.08558299063353729 -0.33644840751701105 0.42152100783403307 0.238437485608377 -0.019277168077195293 0.49042859806387334 -0.01841514954205924
-0.492841414079398 0.16761193608379504 0.05789743979922195 -0.0983828083037299 0.23526998073867722 -0.05238113986499445 -0.14701581443755812 -0.18497889121178868
-0.1277543588494261 0.132874757039269 -0.18304822593193112 -0.253230250440667 0.3122749849882496 -0.23904895486078057 0.13681074556603204 0.10818692553364259
0.08859680008505626 -0.053313193084422054 -0.07049254146641935 -0.11070392868097922 -0.18543922520344597 -0.0414034555183355 0.17464588673238876 0.14609745332768745
0.05272424526685224 0.04316882185387404 0.06345808313788823 -0.13302478286343292 -0.25842255107767576 -0.0205399262791575 0.04208907648357513 0.1940799542779253
0.32236382532521063 0.2369718710550921 0.1799042926681158 -0.19476527168626004 0.5817471031276121 0.024800982443193387 -0.05919917157291904 -0.17627299942285057
-0.15439868640084656 -0.30534993469902616 0.12112932028775172 -0.1289301582826405 0.05737891049716543 0.02044346690512275 -0.2677706626512314 -0.3276731396789802
0.3279766613052995 -0.4524412826055167 -0.2847460653800469 -0.05555898840964681 0.03259642553042718 0.36703940604840535 -0.2243603717977252 0.2904474972099339
0.15623418540225997 -0.24497018081540164 0.1850321094385553 0.22938061780528252 0.16433390587969382 0.13035964714387632 0.36396302171529143 0.21296029534807573
0.11501663305414055 -0.04253591199095313 -0.052149678174347604 -0.7015719436057002 0.27847297242591107 -0.21080850354880218 0.08657932925676276 -0.30255236490252196
0.2995871766154248 0.2627582184907669 -0.2691200420436207 -0.01156254968804792 0.2647514736361628 -0.016553014059168182 0.10156687464945155 0.005429611350159161
-0.37957285955750864 0.0625308782500032 0.4931509356800759 -0.15397041832285013 -0.12484299299201218 -0.28965415890144475 -0.30039058685732806 0.0282853402158205
-0.09083200567221981 0.09910107447789307 0.16723737807352054 -0.11964750179853809 -0.5577695476087985 0.5544189992253071 -0.3760787321259547 -0.34215140133547217
-0.21541169432059354 -0.39701107471780345 0.2574376623642392 -0.3896097423761709 0.534737934300144 -0.09871872531734266 -0.4710146024077931 0.11495632240418897
0.33068619465550425 0.42461877596955133 -0.3004072223308288 -0.08947300129434842 -0.08438819744551491 0.11601482638603969 0.16574380877364167 0.16234652691816762
-0.24167024588076208 -0.2032920135168463 0.1268658680165401 -0.048382095455507014 -0.2378885752035824 0.010701131621849257 0.26113357548875077 -0.122607359203423
0.004774891434918658 0.1022882470006103 -0.11360644447714778 0.11457715839642639 -0.06710890671069795 -0.24489305790669172 0.2036143734108639 -0.2783771013527524
0.09297194056467058 0.07166803637408711 -0.21535782560737238 0.18494393011950552 -0.14898707633243616 -0.12051898448630513 0.2135567665415522 0.0866524196012201
-0.09807418963884856 0.3449222979824389 0.4906513581162456 0.12285068972754283 0.3086436740338028 -0.09165944936279743 -0.44588696242820025 -0.24482854137505497
-0.1287809940841823 -0.14213323820518606 -0.17452295014896316 -0.004723999143017634 0.23339589259718085 0.11290155989318928 0.232979855210981 -0.27302606988359696
00000000: 8775 8a98 3339 d0bf 54d6 3b94 1682 d1bf
00000010: 77fc 80ce ac0f b3bf 60bd a721 2cce d6bf
00000020: 488e 4e75 e203 c23f 463b edcd 1c06 cfbf
00000030: 8a9d 9b2f ea8c babf 50dd d622 e485 d43f
00000040: 4b60 20c3 abba b7bf 7fd5 fbce da75 c83f
00000050: 45c1 6ba9 19f8 d13f 353d 8249 b546 cbbf
00000060: 8a2e 5f4d 4d16 b03f 8f5e 3b4c 720b b9bf
00000070: 8015 30cb 32d7 d1bf a069 1687 44ec d53f
00000080: a78d f5e1 f2bf da3f 0ac2 8e02 5332 e1bf
00000090: dd12 4716 767a d23f 2654 fd98 4fe3 d13f
000000a0: e0e7 55c1 33da b9bf 323e 64aa e7dd c63f
000000b0: 0806 23ff 52bb aabf 33f0 f133 1dab c33f
000000c0: 68c6 6044 cb24 733f 0a39 40ed d383 983f
000000d0: 4b8a 6ad8 409d d53f 67a5 cbd7 ebe3 dbbf
000000e0: 4739 fd95 e429 b53f 438b 115f 033a b8bf
000000f0: b0b6 a86f 865f bd3f e758 bb8c 9803 c4bf
00000100: 658b 263c 789f d3bf e842 16de bfbd ccbf
00000110: 706c c7b8 0801 c43f cdc9 845f 09f1 db3f
00000120: 5046 a0f1 0843 ca3f cfd4 df3d 9b4a c3bf
00000130: c365 a437 ec4f d43f fcb6 ab3b 325f c0bf
00000140: 34c3 beee 5d5d c23f 77b4 dcb8 1295 a4bf
00000150: a1ed d877 bb5a cdbf b7df 2c5a af5a d73f
00000160: db1b f39a 9356 aa3f dfea c5e7 e810 cb3f
00000170: 6309 ecc9 3653 d13f 2a12 e232 85b8 bbbf
00000180: ce3b cc0a 2f5a c33f 51a0 91ea 8de5 d3bf
00000190: a6ec f73c 4ec2 bb3f 02eb 4319 8b26 bcbf
000001a0: 22c8 a3ba ce61 b3bf 013b 23a4 5dfc bd3f
000001b0: 5488 db45 2ba3 d6bf 6ad8 ec59 e3cf acbf
000001c0: 43df 27da c220 8b3f 5fef 253d 0dcb d6bf
000001d0: e59c c7b9 3163 d03f 8dc0 00bf 9b44 c83f
000001e0: 838b abb5 d8cf d9bf 2f11 ca32 7f87 cdbf
000001f0: 90f2 c250 fd18 ca3f cbe8 38fe 8337 c5bf
00000200: 8aa3 3d37 e729 d8bf 3e6d 498f 632a c43f
00000210: 2103 9c0f f5fd cabf 8d8d 9db0 d543 c73f
00000220: 52f9 6ee2 283d c8bf 5c73 7f34 5d4b a63f
00000230: 8126 96c1 1d52 d13f d7bd d797 bbe6 d6bf
00000240: 44bd 1b39 8ab3 be3f 6b03 98bf 08e6 ccbf
00000250: 6165 c605 da08 cd3f b2eb 5214 d960 d1bf
00000260: 2774 7a46 411d c8bf e822 0a78 9bde babf
00000270: 76a8 5339 e4c3 9b3f 8bd3 737e a9e0 bc3f
00000280: 6975 c7e9 bbce b6bf ddfc 4fe0 094c c1bf
00000290: f84c d332 c3dd b63f a87c 36b2 fab8 b7bf
000002a0: 9022 ec19 d7c5 d4bf e5d3 519c 2c71 c2bf
000002b0: 3ad2 361b b964 bdbf 9bbe 059a c872 b33f
000002c0: 797e f241 326f a3bf 4cdc 1f03 3d58 d33f
000002d0: 12ab 4f8a f2e0 a4bf 28d6 7935 a74c c5bf
000002e0: 7632 83be c017 cb3f 3c91 294e 2532 a8bf
000002f0: 2be6 1a54 cac9 e13f 5d27 54c0 3831 cebf
00000300: a9e5 4366 a51a c8bf 336b dd51 c4e8 b53f
00000310: ffea c4e6 5e88 d5bf 2d58 ce3f 33fa da3f
00000320: a50a 6a99 1e85 ce3f c9df cdd9 64bd 93bf
00000330: 1b47 6da1 2e63 df3f 7de9 22c4 6bdb 92bf
00000340: 5577 e5b6 b68a dfbf 1617 f3d3 4e74 c53f
00000350: 3669 ebb4 bba4 ad3f 4f35 27a0 9d2f b9bf
00000360: d467 80a4 531d ce3f db71 4b65 b3d1 aabf
00000370: e686 8009 6ad1 c2bf 983c 1a68 63ad c7bf
00000380: 8001 973c 415a c0bf 284b f93f 0a02 c13f
00000390: 9bf6 fbcf 1f6e c7bf 1509 00a7 ec34 d0bf
000003a0: 018a f837 50fc d33f 6f90 a2f9 2799 cebf
000003b0: 2d47 f9b6 0383 c13f 8693 056b 23b2 bb3f
000003c0: db43 e5a6 47ae b63f cf60 7ce9 dd4b abbf
000003d0: 57cf 3598 cc0b b2bf c038 39b9 1757 bcbf
000003e0: 067b d2f7 78bc c7bf 5508 c96e d532 a5bf
000003f0: 7fc1 f2e1 cb5a c63f 7d20 0944 52b3 c23f
00000400: 4c3c 411a acfe aa3f 4e73 234c 391a a63f
00000410: f67b bef7 c93e b03f 6d5c fac1 f406 c1bf
00000420: 465c 5bbd fe89 d0bf cb61 861e 6b08 95bf
00000430: a816 080e b38c a53f 1a68 37a8 9cd7 c83f
00000440: e9da cbe1 9ba1 d43f 5074 2022 1855 ce3f
00000450: 78b4 b596 1a07 c73f 51ff 2484 11ee c8bf
00000460: 073a cf19 ac9d e23f fd3c 02c2 6d65 993f
00000470: 0843 b693 5a4f aebf 2c30 d817 1d90 c6bf
00000480: 1589 510e 56c3 c3bf 2e8e d773 da8a d3bf
00000490: 82fc 38c5 5402 bf3f b761 a58e c880 c0bf
000004a0: e980 21c0 c460 ad3f f9f1 18d7 21ef 943f
000004b0: 1294 ba8f 2723 d1bf 1fba acc2 98f8 d4bf
000004c0: f914 8ad2 91fd d43f c9a9 0948 ccf4 dcbf
000004d0: e834 9e8f 4739 d2bf e3c1 6f4c 3a72 acbf
000004e0: 3f47 3d8b 7ab0 a03f fa8d 54d9 927d d73f
000004f0: 69df b135 d7b7 ccbf 9e30 6e19 b196 d23f
00000500: b8f2 6856 7bff c33f 2f76 8cd1 2e5b cfbf
00000510: 74ce 5fd5 21af c73f e4ac e715 585c cd3f
00000520: fa48 b0b7 e408 c53f f6bb 99fa 9faf c03f
00000530: e91c ce8e 2b4b d73f 05e9 ee6f 4842 cb3f
00000540: 47ac 76e5 ba71 bd3f 1738 d05d 44c7 a5bf
00000550: 65f1 82d4 5cb3 aabf 047c 3201 4773 e6bf
00000560: 9ee8 584d 80d2 d13f abfb 3ae6 c5fb cabf
00000570: 84db aa1b 102a b63f d15c 2598 045d d3bf
00000580: 784f 77b1 6f2c d33f 8513 cbd8 07d1 d03f
00000590: baa1 d144 4339 d1bf bbf8 2526 1bae 87bf
000005a0: b272 352a b0f1 d03f 1a2e 23f8 45f3 90bf
000005b0: 7ef0 f964 4900 ba3f 6adf dc32 5c3d 763f
000005c0: b6ea 8ff6 eb4a d8bf 84ec 120d 0602 b03f
000005d0: e536 2ff1 c88f df3f 1ac1 9f7b 4db5 c3bf
000005e0: 3813 09dc b5f5 bfbf 3474 e898 b189 d2bf
000005f0: ad05 a570 9939 d3bf 3a94 bb0c d5f6 9c3f
00000600: 3fd2 ca2d c440 b7bf f089 e121 b05e b93f
00000610: af4d bfce 0868 c53f aed7 45fb 37a1 bebf
00000620: 76e7 b585 3fd9 e1bf 1185 bee9 ccbd e13f
00000630: 89ef cc87 ac11 d8bf 160d c1fd cee5 d5bf
00000640: 0236 2443 9c92 cbbf 8f04 8423 a168 d9bf
00000650: fd3c 27d1 db79 d03f 595a 6db3 5def d8bf
00000660: abfd 77ba 921c e13f aca4 bd60 a145 b9bf
00000670: 1dea 516e 1a25 debf c1c5 310d c76d bd3f
00000680: 612e d26d f629 d53f 2ea2 033b f42c db3f
00000690: b928 d936 df39 d3bf 3727 6fde b3e7 b6bf
000006a0: 8d66 3204 779a b5bf 52dd 2dcd 25b3 bd3f
000006b0: 1b40 19d7 1737 c53f 8fc9 dd5f c5c7 c43f
000006c0: 02b1 3cf5 0cef cebf 57e2 cb02 7905 cabf
000006d0: 640a 0e09 243d c03f 25ff 62bb 89c5 a8bf
000006e0: bfb3 4b01 2273 cebf 79ad c492 79ea 853f
000006f0: 9d26 a799 69b6 d03f 8612 0726 3263 bfbf
00000700: 3efa e028 d68e 733f 9dfe a103 902f ba3f
00000710: 9be9 a4db 4f15 bdbf 4367 2ebc ed54 bd3f
00000720: 4bbf 979f 0c2e b1bf b103 5ddd a758 cfbf
00000730: dec8 6529 0910 ca3f 7afb 9030 eed0 d1bf
00000740: 25c1 2b54 02cd b73f 9e2e 6520 d658 b23f
00000750: 54ee f560 d890 cbbf 817e ba21 3eac c73f
00000760: 99ee 2f2e 0212 c3bf a672 ea08 55da bebf
00000770: 3457 1100 d455 cb3f 6b77 4e5c da2e b63f
00000780: 5c9f 14dd 631b b9bf 3cba 5ff9 3413 d63f
00000790: 7e39 36f4 d466 df3f 25bc ab8e 2473 bf3f
000007a0: fcea 8565 d1c0 d33f f6f0 6161 fe76 b7bf
000007b0: b4e1 5578 6989 dcbf bda7 2aa9 8a56 cfbf
000007c0: 2c0e f846 e57b c0bf 6f07 e204 6c31 c2bf
000007d0: 3147 a59d c456 c6bf c2a0 35dd 7859 73bf
000007e0: 20e1 dca6 eadf cd3f 309c 68db 1de7 bc3f
000007f0: 7105 61ad 48d2 cd3f d9bf 4656 4279 d1bf

bias f8 [15]
-0.13128222524729075 0.08327548211206759 0.1455282567621624 -0.030797854026326094 -0.0613033620559979 0.026909967849431286 -0.1322395801808748 -0.02882584182579332
0.0649324878564024 -0.015296301870655626 0.11397163574076796 0.10382790868253572 0.027399035126800114 -0.0847522467164108 0.0822237806381031
00000000: 21da fd1f dbcd c0bf e0de 3ac0 8a51 b53f
00000010: 04fc b77f aba0 c23f 48f9 51ff 7889 9fbf
00000020: d8a9 547e 2763 afbf b11c 665f 498e 9b3f
00000030: 558b 0e00 3aed c0bf ea90 af7f 8584 9dbf
00000040: d289 ca5f 6a9f b03f a60f 46e2 aa53 8fbf
00000050: 08a0 2dc0 3e2d bd3f dc1c 3440 7794 ba3f
00000060: 080a 3f1f 7e0e 9c3f 80d5 e8bf 52b2 b5bf
00000070: 284c cb20 9e0c b53f

weight f8 [15]
0.8671433390007612 1.147043917991827 1.0146547551371317 0.8524301751971477 1.1386831822046448 0.9952732349667306 1.0475267020450003 0.8860731950961895
1.059333982844347 0.9426088276154548 0.8738754695214266 1.1430234443056797 1.0181504483752883 1.0741014131254656 1.1181195977375875
00000000: f87a 3e63 a3bf eb3f 129c 2db9 4a5a f23f
00000010: c8b7 e09f 063c f03f b20c 93a5 1b47 eb3f
00000020: c12f 41db 0b38 f23f f884 5841 47d9 ef3f
00000030: 2c85 ef5b abc2 f03f 909c 592c b65a ec3f
00000040: f1b9 bd30 08f3 f03f ddef f0fc d929 ee3f
00000050: a4e0 4bb0 c9f6 eb3f b0aa 7df3 d249 f23f
00000060: a4df e21f 584a f03f 5261 9ff6 842f f13f
00000070: 38cb 1460 d1e3 f13f

bias f8 [15]
-0.24361887918492192 0.1278257664848462 -0.059377959708548686 0.051185273668400894 -0.04231675365322131 0.17667102494404868 -0.17584894227348322 -0.4800415502866373
-0.023706758284029145 0.06237707573532337 0.11409301908230757 -0.4318392088285833 -0.15857960773330695 -0.19750550116613216 0.2353706887739043
00000000: 02ca 6447 e72e cfbf ebbb 513f 985c c03f
00000010: 0654 1ab6 c966 aebf 649b e2c8 f434 aa3f
00000020: 12e6 06a2 8aaa a5bf ea8a 24f9 279d c63f
00000030: 17e7 0cd8 3782 c6bf 9cf1 cc31 00b9 debf
00000040: 05a9 189e 9546 98bf f14d 9b58 e3ef af3f
00000050: f410 a939 3335 bd3f 6627 c3eb 40a3 dbbf
00000060: c576 832a 564c c4bf bff1 243a dc47 c9bf
00000070: e346 5c71 a020 ce3f

running_mean f8 [15]
1.6672555023406765 0.5886479886999053 -0.9888355726207985 -2.181875386559173 -1.0527242632974 1.466537854966904 1.1433541794842506 -0.2634268010903664
-1.8039898384104633 1.765298695768532 -1.3374643304968936 -0.23804841914732858 -1.3607807120185806 -1.0419777169591757 1.3420605078642658
00000000: 7011 0a1b 14ad fa3f 0b50 8a4e 34d6 e23f
00000010: 6ee3 b07f 8aa4 efbf 86c0 2915 7b74 01c0
00000020: a316 a965 f5d7 f0bf 8bdc d665 f076 f73f
00000030: 8a13 8ac0 2d4b f23f 60ac e415 fcdb d0bf
00000040: d4a0 e472 24dd fcbf eff4 5fd8 a93e fc3f
00000050: a4cf 70ff 4066 f5bf 6517 8ddf 5e78 cebf
00000060: be5b f2fe c1c5 f5bf a801 98d3 f0ab f0bf
00000070: 967b 6870 1479 f53f

running_var f8 [15]
2.188010429771177 1.9672411299178114 3.4297227494830005 2.516877225305963 1.7395298166680284 1.0522046952527837 1.184782672539807 0.24247230522190202
1.7474874591498544 1.965406406810618 3.5354589124568245 2.6489542902733367 2.689201217879525 0.9095238660149952 2.417447226160104
00000000: 9464 b99c 0b81 0140 497d c5d5 d179 ff3f
00000010: 7503 1b7b 1270 0b40 03e4 d586 9022 0440
00000020: d018 9037 1dd5 fb3f 03ef 2c97 d4d5 f03f
00000030: afd0 f6ac def4 f23f f990 8e1e 5509 cf3f
00000040: 0b80 f368 b5f5 fb3f 8d9b 09fd 4d72 ff3f
00000050: 8fd4 aaae 9e48 0c40 3e95 6af2 0e31 0540
00000060: 583f 99ed 7b83 0540 93e8 6ecb d11a ed3f
00000070: fa4e 4192 ee56 0340

bias f8 [9]
-1.810293952743857e-11 1.0812322731430505e-11 9.718163937845709e-11 2.925307342215735e-11 -1.5179371516916056e-10 8.839268521426248e-11 6.6038198146039455e-12 -1.3375536464490784e-11
1.0925684405850055e-11
00000000: beca 7144 86e7 b3bd 05c1 89ec cbc6 a73d
00000010: a4c9 91c7 8cb6 da3d 40dc 640b 0115 c03d
00000020: 6023 f73c c4dc e4bd 8cab 880e 154c d83d
00000030: 9d95 1d78 3d0b 9d3d c39f 04f4 c169 adbd
00000040: 1a32 2110 9d06 a83d

weight f8 [9, 15]
0.2573735919234768 0.4424303879590156 0.10154944685667507 -0.02862949632331696 -0.01069138616197584 0.0841269784540701 0.3932389450825474 0.4087574933192732
-0.4202875103561037 0.40354191334024564 -0.1331634076066863 0.5158314971754547 0.13816027751708312 -0.7536785427322998 -0.02861438177052041 0.1694009739539628
-0.20094822406249815 -0.042504467713566675 -0.20443022268789596 -0.48919095999362 -0.3756296204367434 0.5594595785324662 -0.14870280804093314 -0.3368611350215915
-0.367075502384352 -0.17557333154960286 0.4614676957268172 0.5559081901660341 0.18224894004353429 -0.30646678749502226 -0.19183223559951165 0.15190639737502112
0.08719234799628411 0.07401174069299159 0.42207427555118704 0.666125863993465 0.1328032236822808 0.11700757973921319 -0.655054850423512 -0.2036960025992458
0.046368104587573414 -0.008902079159806911 -0.22486228871999514 0.4194218108445148 -0.3320644968350836 0.41950310205080554 0.7255766068034462 -0.1748872039064589
0.19266322320112161 0.15487918924171235 -0.10770311729798145 0.3889479055195982 -0.11341060171187133 -0.08674707645739135 0.6429892950367412 -0.053226534368338185
-0.3357616601969956 0.22899576611291636 0.36048423620453857 0.12521816463707028 -0.4149978618043219 0.291938630127415 -0.31157550744065676 0.34744408246305786
0.38618873991545544 -0.395121742338513 -0.4320296261837846 -0.20568680595602817 0.04661019867120772 -0.01500807971353554 0.6186924295957624 -0.1470235968910573
-0.3316282315188854 -0.30781132612027934 0.5964024382714862 -0.19579008131303163 0.17731613310750127 0.7576416348799276 0.26902250162949287 -0.39776833293438474
-0.4608842255708991 0.15704973100559363 0.5384151836128676 0.25072057528100594 0.28390841085016333 -0.5085887381109552 0.5876441524971702 0.37006029631684323
0.2936193496645128 -0.36989311410822634 0.2464467769794671 -0.27536607939047064 0.15256852944901794 0.5861766198307736 0.5416147672619904 -0.8735804778041055
-0.4771193406909402 -0.10036002877015879 0.5235080883254405 0.06156836755190252 -0.22894762734243318 -0.08560699120387054 -0.13160959001800945 -0.2788694217466952
0.07052423669405324 0.29604469298035535 -0.05493696748535127 -0.17038465868807615 0.3028559408229701 0.2958375969317415 0.049262457044887235 -0.4491329501676696
0.5341389470746272 0.5625403920731162 -0.5999620175442606 -0.3305996832743268 -0.08695981612037766 -0.21389968317356123 0.4080230564863207 -0.5075203096348913
-0.0396124181157308 0.08806491945071353 -0.3309033016028368 -0.14241357386535955 0.7570709891257226 -0.0950951370384921 -0.1463160464897927 0.5452071649045808
-0.4443361581239804 0.353084762095832 0.4794188013522243 0.5288133990410571 -0.18323188740000984 -0.007863415731440485 0.17075839840370716
00000000: a195 0a16 cf78 d03f 9b98 c28b c750 dc3f
00000010: 9d22 2d01 25ff b93f d06d a3f9 0c51 9dbf
00000020: 3c16 518f 5de5 85bf 3ee9 2b7d 5889 b53f
00000030: 3e28 29ae d32a d93f 2347 7330 1529 da3f
00000040: f863 f995 fde5 dabf cd24 1776 a1d3 d93f
00000050: cfe9 58a0 7f0b c1bf 7eb0 530e b181 e03f
00000060: 5f65 c568 3caf c13f e86d 9776 221e e8bf
00000070: 353c 99a7 164d 9dbf 107b 855d eeae c53f
00000080: add3 44e1 abb8 c9bf 05fe 8645 25c3 a5bf
00000090: de16 6100 c52a cabf e9f8 aa99 e74e dfbf
000000a0: 3ad2 cbd1 500a d8bf 6b63 27c6 17e7 e13f
000000b0: 67f9 ad90 b108 c3bf e783 8d01 228f d5bf
000000c0: f5d3 793f 2a7e d7bf 6014 87da 2f79 c6bf
000000d0: 7da8 53cd af88 dd3f ecee 0af9 ffc9 e13f
000000e0: c7db 9bea ee53 c73f bd7b 66df 269d d3bf
000000f0: cff6 1b6d f58d c8bf ddb2 6338 ab71 c33f
00000100: 7c01 1bdb 3c52 b63f ebe2 cbf5 6ef2 b23f
00000110: 586a 7ed2 4303 db3f c5e4 1b30 e750 e53f
00000120: 0467 422f b2ff c03f 4231 5d70 35f4 bd3f
00000130: 09f7 f496 35f6 e4bf 38ae beea b512 cabf
00000140: faf0 8f69 8fbd a73f 88b8 dcd6 403b 82bf
00000150: b8fa 1398 49c8 ccbf 3e9a 3394 ced7 da3f
00000160: b770 8472 8b40 d5bf 9c3d f889 23d9 da3f
00000170: 9ad4 9e6e ec37 e73f 2231 a232 b462 c6bf
00000180: d037 6541 30a9 c83f 22e4 4fce 14d3 c33f
00000190: 61da 7876 6e92 bbbf d57a 83c1 85e4 d83f
000001a0: 7746 5f29 7a08 bdbf ba79 6870 0e35 b6bf
000001b0: 7b8c 3b49 5e93 e43f d869 c820 8240 abbf
000001c0: 22fe 7279 1e7d d5bf fb4f 30b7 bb4f cd3f
000001d0: c735 4e79 2c12 d73f 399d fd18 2607 c03f
000001e0: e301 1731 538f dabf bd85 355d 1faf d23f
000001f0: 6c4d ac65 daf0 d3bf 1d86 d71a 863c d63f
00000200: 1a4d 01fa 50b7 d83f b113 52b4 ac49 d9bf
00000210: 8c32 d796 5fa6 dbbf 2061 66fc f153 cabf
00000220: 7ce2 e7bd 4add a73f aef8 5c5c 8ebc 8ebf
00000230: cdb0 ec10 54cc e33f 9d95 3152 abd1 c2bf
00000240: 9373 339e 6539 d5bf 7199 c146 2eb3 d3bf
00000250: a12e f490 ba15 e33f 8371 0f3e a60f c9bf
00000260: c0fc 5f88 4bb2 c63f 5fb6 7cab 993e e83f
00000270: fbc0 9827 aa37 d13f 9a9b 554f 0975 d9bf
00000280: 636f 048d 207f ddbf 21df 41a1 341a c43f
00000290: ef2f a97a b23a e13f db09 d14f ce0b d03f
000002a0: 454a ea2e 8e2b d23f 619d a9e3 5b46 e0bf
000002b0: c526 151c fbcd e23f 7aa6 8e61 11af d73f
000002c0: 2d0a 12d0 a8ca d23f 4211 072b 54ac d7bf
000002d0: de6b aa67 918b cf3f 583a 5a0c 999f d1bf
000002e0: aef0 3096 5d87 c33f c24b 7b78 f5c1 e23f
000002f0: 0478 0d7e e854 e13f 4bf7 d20b 5ff4 ebbf
00000300: 7ca0 238f 1f89 debf 36b9 64e1 31b1 b9bf
00000310: 6d93 d108 94c0 e03f be01 359a e385 af3f
00000320: aa5d f7e5 274e cdbf cb92 87fb 56ea b5bf
00000330: 19d1 7b42 95d8 c0bf 496a 9021 ffd8 d1bf
00000340: 6d23 2d5a e00d b23f b551 a070 65f2 d23f
00000350: a1ca 61bd b220 acbf a717 671c 2acf c5bf
00000360: 55f9 4ee2 fd61 d33f 98f0 efd0 00ef d23f
00000370: a756 dbc3 ed38 a93f 41ac 2121 98be dcbf
00000380: a092 a68f aa17 e13f f641 54b5 5400 e23f
00000390: 9e3b 868b e332 e3bf d9cb ee92 8b28 d5bf
000003a0: 3b9e 4d9e ff42 b6bf 6c77 ed97 1061 cbbf
000003b0: 73da e7bc 0c1d da3f 3e01 7e3b 9b3d e0bf
000003c0: 3124 a530 1448 a4bf 6337 f72c 6c8b b63f
000003d0: 6b72 a10a 852d d5bf af0c 21a5 9b3a c2bf
000003e0: 8273 61f0 ec39 e83f 34c6 96a7 2758 b8bf
000003f0: d5de 46f5 7bba c2bf f5eb d94b 5672 e13f
00000400: 70a8 e4ec 0070 dcbf f5b8 7ad4 f098 d63f
00000410: fd4c 3932 ccae de3f 8c2c d213 0aec e03f
00000420: a8d3 fb79 2474 c7bf 550b 36cb b11a 80bf
00000430: 32a4 5444 69db c53f

weight f8 [9]
0.9938409033618897 1.1365715603399928 1.1073406916220334 0.9987626193230459 1.598542054641768 1.0469210724791218 1.0571368797410339 1.0024243453767272
0.9890156978280069
00000000: a7b9 2b70 8bcd ef3f 5795 13a9 652f f23f
00000010: 19bf 80df aab7 f13f 84b6 4e06 ddf5 ef3f
00000020: fd78 5fd5 a093 f93f 3da8 7c4f 30c0 f03f
00000030: b121 5e5c 08ea f03f 4eb7 411c ee09 f03f
00000040: 6edc ac3f 04a6 ef3f

bias f8 [9]
0.014968808818338812 0.3150507550870799 -0.34661568078624644 -0.3142085708517795 -0.05933277731988356 0.332339750884737 0.09333524726689871 0.19907260690650183
0.020573691072693148
00000000: 6fc1 ad82 f7a7 8e3f 9a76 6ba4 ca29 d43f
00000010: 397e 5089 f32e d6bf 499a fb43 fe1b d4bf
00000020: 87e9 56a4 dd60 aebf a47c 4df2 0d45 d53f
00000030: a24d 939a d1e4 b73f 97b0 1810 367b c93f
00000040: 24ca 4209 4511 953f

running_mean f8 [9]
-0.4080556807956084 -0.5166147382550496 -0.06452815284616062 0.012959862143339213 0.6175826610506767 -0.7148813128540199 0.04048617914375111 -0.37423364307203133
-0.3646440821642159
00000000: b0b4 fd92 951d dabf 37fc ada1 1b88 e0bf
00000010: b642 25c2 ea84 b0bf bdcd 8740 b38a 8a3f
00000020: 0642 79b6 3cc3 e33f 8e58 67c6 4ee0 e6bf
00000030: 958d b9be 9aba a43f feaa 83aa 71f3 d7bf
00000040: cdd0 e421 5456 d7bf

running_var f8 [9]
2.296703498021157 3.0809512067912053 0.19863224445903394 1.0939403465611446 4.973790302198877 5.208571058790833 2.986923888375669 3.1788038210166367
0.8655043604333256
00000000: 9be0 6415 a65f 0240 70eb 0dbf c9a5 0840
00000010: f4f9 f008 c86c c93f 9214 c497 c780 f13f
00000020: ae6c f448 29e5 1340 4a98 d1a6 93d5 1440
00000030: 9cb7 015a 38e5 0740 9154 9db2 306e 0940
00000040: b168 5333 36b2 eb3f
